checkpoints/actor_checkpoint_101.pth (torch, 881591 bytes, 12 tensors)

fc1.weight f4 [400, 33]
-0.11261732 -0.0016027382 0.079930365 0.05485684 -0.034240507 0.056493975 0.00026131017 -0.041438717
-0.12615764 0.16130577 -0.049825836 0.0398094 0.045102272 -0.023579953 0.12988517 0.04948456
-0.10733764 -0.019590715 -0.09611408 -0.042821243 0.092793 -0.07580455 0.042230684 0.076906495
0.0568296 0.036456395 0.04155157 0.015618014 0.04710359 -0.010714859 -0.0292125 0.022674661
0.0809708 0.098264724 0.027046613 -0.086442165 -0.0621317 0.0676558 0.023987366 -0.008998711
0.011087479 -0.006908824 -0.04774167 -0.0035655615 -0.033833954 0.04732851 -0.03941662 0.029283106
-0.026775626 -0.039793275 -0.015145674 -0.010457889 0.0127824275 0.027776456 0.049669754 -0.021462565
-0.07206771 -0.023022069 -0.05445301 0.022996653 0.027770648 -0.044966463 -0.01818055 -0.028173076
-0.017023362 -0.32686713 0.09266634 0.08312102 0.049132183 -0.03484852 0.05468135 -0.018923009
0.09322723 0.05437953 -0.06194838 -0.08487673 0.09567715 -0.063226454 -0.013505193 -0.050771672
0.037334017 -0.028352844 -0.034023013 -0.0054211686 0.020339586 0.061326105 0.040144805 0.082314074
-0.07064162 -0.056691788 -0.027984709 -0.040194232 0.094205126 0.029634079 -0.0073306444 0.031557407
-0.0900239 -0.03434222 0.018433992 -0.057837233 0.037561975 0.004904393 0.0032253328 -0.024825355
-0.0031649887 0.04691974 -0.00022467464 -0.09125989 0.0037465852 -0.01104018 0.01053436 0.036964267
-0.06062627 0.104452334 -0.048042007 -0.08165645 -0.025246507 0.06367105 0.021076618 -0.005443933
-0.00796464 -0.029368717 -0.04564407 0.022271205 -0.055888347 0.12456169 0.04270362 -0.07374534
0.046358403 -0.0136751365 -0.046990164 0.19823015 -0.14873238 -0.066102564 0.03662072 -0.035956074
0.014307377 0.07519754 0.007725016 0.052758858 0.072490185 -0.04324943 0.0019123751 -0.007628589
-0.0066327504 -0.007842077 0.0019156685 -0.064778045 -0.08632722 0.011545517 0.06503793 -0.0065901894
-0.0152895115 -0.043114804 -0.081713185 -0.053793695 0.024493642 -0.014644172 0.0953167 -0.0026300172
0.026076501 -0.047519952 0.0008706245 0.0030454695 -0.124956615 -0.016931295 0.009235599 0.03640978
0.00789634 0.0725515 0.041219786 0.011851572 0.060078803 -0.0772549 0.06535154 0.02825702
0.029647306 0.009501848 -0.025099816 0.16972226 0.09050682 0.08284353 -0.0076520075 0.013698875
0.10106081 0.044653326 -0.004961344 0.021952452 -0.095402256 0.061715435 -0.012157028 0.05747817
-0.011557896 0.054801382 0.032925 -0.06073166 0.0029144362 0.18153675 0.0102013955 -0.04927907
0.092035 0.020120297 -0.017205866 0.032116976 -0.09726212 -0.026915882 -0.058706623 -0.015117691
-0.009379311 0.029133301 0.06641557 0.0021654759 0.1084074 -0.033654768 0.032504108 -0.068543464
-0.021403065 -0.018201359 -0.08659353 -0.026533356 0.02340329 0.0024340327 0.0065703867 -0.0456511
-0.034948718 -0.016528122 0.08442338 0.047752727 -0.0021351406 -0.025365377 0.056677453 -0.021108488
-0.06860099 -0.06205256 0.056334417 -0.02619016 0.022369213 -0.023650432 0.031262856 -0.03974045
-0.037747342 -0.0798172 0.031878028 -0.025799599 0.061188363 0.035461284 -0.039750505 0.1171254
-0.020867106 0.013065116 0.04114512 0.04907676 0.0015128043 -0.039548285 0.020901378 0.04010973
00000000: e9a3 e6bd f812 d2ba 88b2 a33d 91b1 603d
00000010: c63f 0cbd 3a66 673d 7500 8939 a5bb 29bd
00000020: 782f 01be 572d 253e 2d16 4cbd 2e0f 233d
00000030: 29bd 383d bf2a c1bc 9e00 053e 52b0 4a3d
00000040: d6d3 dbbd b57c a0bc 75d7 c4bd 5465 2fbd
00000050: 420a be3d 6a3f 9bbd 15fa 2c3d 2781 9d3d
00000060: 28c6 683d 4d53 153d fb31 2a3d b3e2 7f3c
00000070: b2ef 403d 608d 2fbc 0e4f efbc 36c0 b93c
00000080: 05d4 a53d 043f c93d dc90 dd3c 9708 b1bd
00000090: cf7d 7ebd 208f 8a3d 2781 c43c 546f 13bc
000000a0: 42a8 353c 6b63 e2bb c58c 43bd 32ac 69bb
000000b0: 7995 0abd 8adb 413d 5273 21bd 20e3 ef3c
000000c0: 8f58 dbbc 46fe 22bd 9025 78bc 9157 2bbc
000000d0: 636d 513c 738b e33c 8372 4b3d 43d2 afbc
000000e0: 3c98 93bd c798 bcbc 1f0a 5fbd 7a63 bc3c
000000f0: 457f e33c c12e 38bd 60ef 94bc 39cb e6bc
00000100: 9474 8bbc 215b a7be dac7 bd3d 5a3b aa3d
00000110: d43e 493d 52bd 0ebd 8df9 5f3d 6d04 9bbc
00000120: ebed be3d 12bd 5e3d 96bd 7dbd dad3 adbd
00000130: 62f2 c33d df7c 81bd e344 5dbc f5f5 4fbd
00000140: 8eeb 183d 3944 e8bc b75b 0bbd 0fa4 b1bb
00000150: 349f a63c 1531 7b3d e16e 243d 4894 a83d
00000160: 8eac 90bd a635 68bd 3040 e5bc b5a2 24bd
00000170: 9eee c03d 2bc3 f23c e735 f0bb 5742 013d
00000180: 735e b8bd 6daa 0cbd e202 973c bce6 6cbd
00000190: 96da 193d 08b5 a03b 1b60 533b 8b5e cbbc
000001a0: b36b 4fbb ea2e 403d a496 6bb9 77e6 babd
000001b0: 4589 753b dfe1 34bc 4f98 2c3c d867 173d
000001c0: 4053 78bd 1beb d53d b2c7 44bd 7f3b a7bd
000001d0: c3d1 cebc f865 823d dfa8 ac3c 0563 b2bb
000001e0: 1f7e 02bc aa96 f0bc 47f5 3abd 1a72 b63c
000001f0: 2eeb 64bd 331a ff3d fee9 2e3d cc07 97bd
00000200: 4fe2 3d3d ae0d 60bc c278 40bd d8fc 4a3e
00000210: 4d4d 18be c860 87bd 9cff 153d ad46 13bd
00000220: 7d69 6a3c 2b01 9a3d 2222 fd3b ac19 583d
00000230: bc75 943d 5026 31bd a9a8 fa3a 3ef9 f9bb
00000240: 8b57 d9bb 0e7c 00bc 2b17 fb3a 5aaa 84bd
00000250: 53cc b0bd 6829 3d3c 9b32 853d 84f2 d7bb
00000260: dc80 7abc 2699 30bd 3e59 a7bd c756 5cbd
00000270: e4a6 c83c 1cee 6fbc 6735 c33d 5e5c 2cbb
00000280: 639e d53c 48a4 42bd 9f3a 643a 8096 473b
00000290: 41e9 ffbd 80b3 8abc e950 173c 6c22 153d
000002a0: a75f 013c e195 943d 14d6 283d 192d 423c
000002b0: 3115 763d d137 9ebd 07d7 853d 447b e73c
000002c0: e8de f23c a4ad 1b3c 219e cdbc accb 2d3e
000002d0: a45b b93d dea9 a93d b1bd fabb 3f71 603c
000002e0: f8f8 ce3d 68e6 363d c592 a2bb a1d5 b33c
000002f0: 4262 c3bd 53c9 7c3d 452e 47bc 3b6e 6b3d
00000300: 545d 3dbc 6a77 603d 5ddc 063d c3c1 78bd
00000310: 2000 3f3b c5e4 393e c123 273c dad8 49bd
00000320: d97c bc3d 52d3 a43c 51f3 8cbc 178d 033d
00000330: 5d31 c7bd b27e dcbc 5b76 70bd 31b0 77bc
00000340: afab 19bc f6a8 ee3c e304 883d a8ea 0d3b
00000350: b304 de3d 95d9 09bd 0723 053d 8460 8cbd
00000360: 7b55 afbc 041b 95bc f357 b1bd 7b5c d9bc
00000370: 42b8 bf3c 4b84 1f3b 664c d73b a6fc 3abd
00000380: 6326 0fbd fc65 87bc 2ae6 ac3d 5d98 433d
00000390: b7ed 0bbb 0dcb cfbc 9e26 683d b5eb acbc
000003a0: ad7e 8cbd d32a 7ebd ebbe 663d bf8c d6bc
000003b0: a43f b73c 8dbe c1bc 7b0d 003d e2c6 22bd
000003c0: f59c 1abd 3377 a3bd 8992 023d ae59 d3bc
000003d0: a6a0 7a3d da3f 113d 6dd1 22bd 71df ef3d
000003e0: 7ef1 aabc 110f 563c c987 283d b604 493d
000003f0: 4a49 c63a 62fd 21bd 5e39 ab3c 1a4a 243d

fc1.bias f4 [400]
-0.09206711 -0.11461191 0.12488167 0.006140861 -0.124386325 -0.16812712 -0.13405204 -0.11881827
-0.067755185 -0.10436076 0.10228664 -0.07910969 0.1512287 -0.072342 -0.13227311 -0.09190956
-0.10337057 -0.1785718 -0.16532148 -0.05202901 -0.13561422 -0.11787138 -0.07484369 -0.14543062
-0.06340327 -0.17640011 -0.09814109 0.11913826 0.121650495 -0.039106026 0.026563952 0.13097222
0.09817094 -0.052346814 -0.03507001 -0.06664613 -0.1999112 0.10143001 0.12248993 0.012099296
0.047692508 0.017142368 0.117551215 0.026699435 0.07306362 0.08993146 0.05975896 0.09360579
0.02991007 -0.11211904 0.054155014 0.10736482 0.10611608 0.05380813 -0.12703954 0.14768896
0.0040423167 -0.16385952 -0.049301777 0.1335304 -0.17178144 -0.08839862 0.09792042 -0.05111475
-0.09531599 -0.1468259 0.064475484 -0.11726659 -0.025016634 0.023241743 -0.022563225 -0.00675714
0.074482396 -0.05246993 0.06580696 0.10907389 -0.12365377 -0.07381381 0.095012575 -0.029834861
-0.048196513 -0.055194397 -0.06358609 -0.14734602 0.0088696405 0.15627554 -0.01836525 0.037785865
0.11678587 -0.16696432 -0.14382023 -0.060640063 0.04667989 -0.02488462 -0.0997425 -0.11938293
-0.075678065 0.074879155 0.015520375 0.09662111 -0.12521784 0.15739101 -0.13744424 0.092620105
-0.059773028 0.15786023 0.14517313 -0.08974244 -0.03614493 -0.11106363 0.009168109 -0.069795474
-0.042908218 -0.17820922 0.10718975 0.1076153 -0.037449155 -0.032957755 -0.14145847 -0.17740369
-0.21627766 -0.14053364 -0.15922219 -0.009438324 -0.12652348 0.0575585 0.041967966 -0.03590655
-0.0050593666 0.020471418 -0.19338477 0.17039362 0.14975709 0.13889113 -0.071518846 0.046902377
-0.08615385 -0.013262265 0.099233374 0.02388373 -0.004675443 -0.06683294 -0.13610989 0.08630516
-0.16731676 -0.028990513 -0.048077587 -0.016475514 -0.18194392 -0.13771804 -0.12273848 0.011256245
0.038910903 -0.23781031 -0.053894527 -0.17523508 0.08627177 -0.20366915 -0.022837888 -0.0202619
-0.095663406 0.10537767 -0.015984021 0.07591548 0.06829316 -0.110252954 0.07296599 0.13284907
-0.05543364 -0.062662356 -0.007537869 -0.15263906 -0.05194286 -0.056965552 -0.16987367 0.07297
-0.16106202 -0.094652206 0.09284562 -0.015019171 0.047537763 0.020766813 -0.18807629 -0.10466034
-0.098563336 -0.112174064 -0.1544027 -0.08973356 0.113817886 0.042673003 -0.030860879 -0.20043771
-0.04414372 0.11552675 0.048053857 -0.032638773 -0.1262675 -0.07583412 0.09693483 -0.02696787
-0.028325567 -0.10471916 -0.14488405 -0.11663464 -0.20563756 0.14608091 0.030261058 -0.033841357
0.097015925 0.029178647 -0.050580874 0.030766886 -0.032081734 -0.21696924 0.09248572 -0.08980005
-0.1848893 -0.083641 0.03559219 0.11210168 -0.19498757 -0.1848053 -0.10417079 -0.12721977
0.091083616 -0.04748856 0.08126267 0.039555047 0.09667332 -0.12192968 -0.0015872131 -0.013882156
0.0504966 -0.12804066 -0.11775682 0.115290076 -0.07682334 -0.12878892 -0.17959298 -0.07119325
0.025805108 -0.03174666 0.13449672 0.030994253 -0.20064259 -0.014909702 0.16515641 0.1183764
-0.07653034 -0.14113149 -0.017319875 0.10543941 -0.04473814 -0.21214774 0.10627931 0.0988571
00000000: ae8d bcbd a6b9 eabd f6c1 ff3d 4739 c93b
00000010: 42be febd 8429 2cbe f044 09be fe56 f3bd
00000020: 3bc3 8abd 18bb d5bd a87b d13d 4304 a2bd
00000030: b2db 1a3e 0b28 94bd 9a72 07be 143b bcbd
00000040: f3b3 d3bd 87db 36be 094a 29be 5f1c 55bd
00000050: 74de 0abe 8d66 f1bd a647 99bd c4eb 14be
00000060: 93d9 81bd 3ba2 34be 32fe c8bd c3fe f33d
00000070: e523 f93d a42d 20bd a59c d93c 951d 063e
00000080: d90d c93d 9d69 56bd 92a5 0fbd c47d 88bd
00000090: 86b5 4cbe 89ba cf3d 00dc fa3d 203c 463c
000000a0: 3859 433d 276e 8c3c b1be f03d c6b8 da3c
000000b0: 61a2 953d fc2d b83d d0c5 743d 64b4 bf3d
000000c0: f705 f53c ab9e e5bd a6d1 5d3d 16e2 db3d
000000d0: 6353 d93d ea65 5c3d a716 02be c63b 173e
000000e0: 6975 843b caca 27be a9f0 49bd 31bc 083e
000000f0: 79e7 2fbe 560a b5bd 808a c83d b35d 51bd
00000100: 0835 c3bd 8759 16be b90b 843d 7729 f0bd
00000110: afef ccbc 7865 be3c 83d6 b8bc 006b ddbb
00000120: 3a8a 983d b6ea 56bd cdc5 863d 2262 df3d
00000130: 303e fdbd b22b 97bd f495 c23d 3d68 f4bc
00000140: b569 45bd 8513 62bd 6d39 82bd e0e1 16be
00000150: f851 113c b206 203e b972 96bc 5ac5 1a3d
00000160: 6e2d ef3d b2f8 2abe 9c45 13be b761 78bd
00000170: 6a33 3f3d d5da cbbc cc45 ccbd 0a7f f4bd
00000180: 1afd 9abd 3e5a 993d 2c49 7e3c 4ae1 c53d
00000190: 1b39 00be 1c2b 213e 2fbe 0cbe 9caf bd3d
000001a0: 90d4 74bd 1da6 213e 44a8 143e e2ca b7bd
000001b0: b50c 14bd 5475 e3bd d635 163c eef0 8ebd
000001c0: 87c0 2fbd 7a7c 36be 4d86 db3d 6965 dc3d
000001d0: 4964 19bd b6fe 06bd 7dda 10be 50a9 35be
000001e0: e477 5dbe 0de8 0fbe 240b 23be 33a3 1abc
000001f0: 5f8f 01be 76c2 6b3d 9ae6 2b3d bf12 13bd
00000200: 0bc9 a5bb adb3 a73c a806 46be aa7b 2e3e
00000210: ec59 193e 7a39 0e3e 7978 92bd b51c 403d
00000220: 6e71 b0bd f949 59bc de3a cb3d d0a7 c33c
00000230: 7534 99bb b5df 88bd 6460 0bbe c2c0 b03d
00000240: 1655 2bbe 837d edbc 01ed 44bd a8f7 86bc
00000250: 824f 3abe f505 0dbe 505e fbbd 1d6c 383c
00000260: 0a61 1f3d 8c84 73be 82c0 5cbd d370 33be
00000270: 41af b03d a58e 50be 8616 bbbc 49fc a5bc
00000280: 2deb c3bd 3fd0 d73d ecf0 82bc 9379 9b3d
00000290: 49dd 8b3d 4dcc e1bd 316f 953d 9609 083e
000002a0: 620e 63bd 1f55 80bd 3a00 f7bb 6a4d 1cbe
000002b0: 09c2 54bd b654 69bd 5df3 2dbe 4c71 953d
000002c0: 71ed 24be 04d9 c1bd d825 be3d f812 76bc
000002d0: f5b6 423d 2a1f aa3c 1297 40be 2958 d6bd
000002e0: 93db c9bd 84bb e5bd be1b 1ebe 3bc6 b7bd
000002f0: 5a19 e93d e3c9 2e3d f4cf fcbc 8b3f 4dbe
00000300: 0cd0 34bd 4a99 ec3d 1fd4 443d 3cb0 05bd
00000310: 444c 01be eb4e 9bbd c585 c63d b9eb dcbc
00000320: 050b e8bc 0077 d6bd 7c5c 14be 24de eebd
00000330: a792 52be 3c96 153e 0ae6 f73c 3c9d 0abd
00000340: 49b0 c63d 0f08 ef3c e42d 4fbd d60a fc3c
00000350: 2368 03bd 2f2d 5ebe 2769 bd3d 17e9 b7bd
00000360: 9f53 3dbe f94b abbd 1ec9 113d 9195 e53d
00000370: d2aa 47be 9a3d 3dbe 7f57 d5bd e645 02be
00000380: 0c8a ba3d 5d83 42bd 0b6d a63d 7904 223d
00000390: a9fc c53d 45b6 f9bd 090a d0ba fc71 63bc
000003a0: 86d5 4e3d 171d 03be 7d2a f1bd 341d ec3d
000003b0: 8e55 9dbd 3ee1 03be 39e7 37be c4cd 91bd
000003c0: 3c65 d33c c908 02bd 82b9 093e a9e7 fd3c
000003d0: 4075 4dbe d347 74bc c31e 293e 536f f23d
000003e0: f0bb 9cbd c684 10be 69e2 8dbc 9ef0 d73d
000003f0: 573f 37bd 423d 59be f8a8 d93d 9775 ca3d

fc2.weight f4 [300, 400]
-0.086602524 0.032051027 -0.028247377 -0.024859272 0.02084309 -0.00069560035 0.030729834 0.035693374
-0.0060351538 -0.018449478 -0.03427658 0.06210448 0.00998158 -0.05554965 -0.043683156 0.03685263
0.0059155026 -0.06243995 -0.0119118225 0.01766381 0.050123926 -0.11612812 0.06624991 0.0018651148
0.13444062 0.0014617761 -0.005414139 -0.040434454 0.04405373 -0.02285088 -0.013709331 0.0041002226
0.03025736 -0.0080130445 -0.024205878 -0.036100224 0.051433384 0.019708319 0.018040974 0.038289316
-0.060250062 -0.066854656 0.024365803 0.036023576 -0.027481977 -0.015989274 0.015665118 -0.062197134
-0.0581576 0.053310703 0.12082186 0.004639256 0.030319279 0.036370546 -0.056586254 0.010336592
0.06981189 0.06789605 0.023421269 0.007376327 0.005288238 -0.024201453 -0.015871594 -0.09205701
-0.055998884 0.047077093 -0.055571888 0.0085696345 0.103367515 0.047939945 -0.023496335 -0.008137919
-0.06517053 0.02735701 0.06807897 0.031024614 -0.0071188714 0.04688182 -0.047754087 0.08769315
0.0173525 0.061301265 0.00051025994 -0.088841446 -0.014484348 0.071415745 -0.014369875 -0.02667275
-0.039434105 -0.0395374 0.03312979 0.025301687 -0.015278899 -0.03201814 -0.053247236 0.047230866
-0.01666667 -0.033785697 -0.002046749 0.019208843 -0.0010884823 0.059292287 -0.036255084 -0.0011649714
0.0047662994 0.0018817051 -0.04931393 0.0012062517 0.038882855 -0.023957258 -0.053954158 0.021214953
-0.03318376 -0.03535535 -0.06836485 0.050701823 -0.03346542 0.07845159 -0.023240276 0.04361978
-0.045480013 0.023654494 -0.062783025 0.08042664 -0.056376714 -0.03426324 -0.016419534 0.052373618
0.05844931 0.047616087 0.044995833 0.036649298 -0.0025445488 -0.051176004 -0.048088737 -0.02872105
0.011419079 -0.021322845 -0.029945776 0.063596986 -0.06396171 -0.06604235 0.09885713 -0.044706114
0.03711069 0.06806644 -0.036926895 -0.053817358 -0.09469237 0.06825592 0.008369382 -0.034865446
-0.07386811 0.05694113 -0.0056335386 0.108791575 0.038129948 -0.03223096 -0.049722053 0.0050911033
0.079150714 -0.01603905 -0.09419483 0.014608512 0.03218386 0.010455882 0.06221183 0.00052282144
-0.001677405 -0.014330988 -0.021475142 -0.01571907 -0.08682762 0.10453869 0.03579528 -0.0693811
0.06558952 -0.0143607585 0.059181336 -0.03308328 -0.10759784 0.057079904 0.03595552 0.031480886
0.011432917 0.023953818 -0.002996298 -0.08497003 -0.051468633 0.052544706 -0.071202174 0.033217512
-0.007705217 -0.0037584894 0.021416644 -0.02334601 -5.8971058e-05 0.06817455 0.046487775 0.007704045
0.07584664 -0.057579845 0.013796562 0.07646812 -0.02491934 -0.046197478 -0.013401371 0.051705096
-0.029844562 -0.13322486 -0.034804475 0.08595168 -0.032630105 -0.05442092 0.067018315 0.02974359
-0.048323464 -0.0009684084 0.036208294 -0.026709503 -0.029516695 -0.068683825 0.043296095 -0.1260554
0.020419408 -0.011757111 -0.045793224 -0.016388161 0.037668623 0.01961841 -0.011935754 -0.042263903
-0.011242919 0.06280142 -0.008315031 -0.0051606684 -0.16027115 -0.012590977 -0.05039104 -0.005743204
0.06410923 0.058552846 -0.020206336 -0.043245826 0.08397846 -0.0149805 0.026185425 -0.031599667
-0.047143586 -0.026988715 -0.049990658 0.003151635 -0.0047867266 0.012950568 0.03539973 0.037699986
00000000: aa5c b1bd f047 033d 0b67 e7bc aca5 cbbc
00000010: 21bf aa3c f358 36ba 22bd fb3c 3733 123d
00000020: 8ac2 c5bb 5c23 97bc 9965 0cbd 4461 7e3d
00000030: c889 233c 0888 63bd 1ced 32bd c9f2 163d
00000040: d5d6 c13b 08c1 7fbd ce29 43bc b2b3 903c
00000050: bf4e 4d3d 94d4 edbd 08ae 873d de76 f43a
00000060: cdaa 093e 1199 bf3a 1769 b1bb 999e 25bd
00000070: af71 343d c531 bbbc 1a9d 60bc 295b 863b
00000080: 48de f73c 2549 03bc 684b c6bc d4dd 13bd
00000090: d0ab 523d 5773 a13c aaca 933c 42d5 1c3d
000000a0: c5c8 76bd 18eb 88bd cb9a c73c 758d 133d
000000b0: e221 e1bc f0fb 82bc 2254 803c 6cc2 7ebd
000000c0: aa36 6ebd 535c 5a3d 7471 f73d e604 983b
000000d0: 2360 f83c 48f9 143d fdc6 67bd cf5a 293c
000000e0: 89f9 8e3d 160d 8b3d f6dd bf3c 1eb5 f13b
000000f0: f548 ad3b 2042 c6bc 2505 82bc 6388 bcbd
00000100: 165f 65bd e9d3 403d 599f 63bd a767 0c3c
00000110: 59b2 d33d ad5c 443d 637b c0bc e854 05bc
00000120: 2078 85bd cf1b e03c fd6c 8b3d 5527 fe3c
00000130: 6c45 e9bb 2707 403d ca99 43bd 7798 b33d
00000140: d526 8e3c 0917 7b3d f7c2 053a 81f2 b5bd
00000150: c24f 6dbc 6b42 923d a06f 6bbc d080 dabc
00000160: a885 21bd f8f1 21bd 1ab3 073d 7c45 cf3c
00000170: 5954 7abc 7425 03bd c619 5abd 2775 413d
00000180: 8a88 88bc df62 0abd c022 06bb dd5b 9d3c
00000190: 68ab 8eba 78dc 723d 3680 14bd f4b1 98ba
000001a0: 9e2e 9c3b 8ca3 f63a 67fd 49bd 171b 9e3a
000001b0: a143 1f3d 0342 c4bc 09ff 5cbd fbca ad3c
000001c0: b2eb 07bd c5d0 10bd df02 8cbd b7ac 4f3d
000001d0: 0913 09bd 3aab a03d 6462 bebc a8aa 323d
000001e0: 4049 3abd 12c7 c13c 6394 80bd b9b6 a43d
000001f0: 45eb 66bd 9c57 0cbd 4282 86bc b885 563d
00000200: 8b68 6f3d 1609 433d 8d4d 383d 931d 163d
00000210: 72c2 26bb ee9d 51bd b2f8 44bd 6848 ebbc
00000220: 1717 3b3c 3fad aebc d850 f5bc 233f 823d
00000230: 5bfe 82bd 3641 87bd 9b75 ca3d c21d 37bd
00000240: 6101 183d 6b66 8b3d a840 17bd 976f 5cbd
00000250: 13ee c1bd c3c9 8b3d bb1f 093c 12cf 0ebd
00000260: 2a48 97bd 1a3b 693d 8c99 b8bb 1ece de3d
00000270: 262e 1c3d 9c04 04bd 5aa9 4bbd 45d3 a63b
00000280: c519 a23d 5364 83bc 38e9 c0bd 8a58 6f3c
00000290: 39d3 033d 264f 2b3c d5d1 7e3d f40d 093a
000002a0: 5fdc dbba 85cc 6abc a3ec afbc 47c5 80bc
000002b0: aed2 b1bd 6118 d63d 129e 123d ae17 8ebd
000002c0: cc53 863d 6349 6bbc 2168 723d 5582 07bd
000002d0: 425c dcbd 9ecc 693d 1846 133d 1af2 003d
000002e0: 2151 3b3c cc3a c43c 8a5d 44bb c404 aebd
000002f0: c6d0 52bd 1e39 573d 72d2 91bd 160f 083d
00000300: 0c7c fcbb fd50 76bb f571 af3c 2240 bfbc
00000310: b157 77b8 199f 8b3d f769 3e3d 3772 fc3b
00000320: 7c55 9b3d d8d8 6bbd fa0a 623c 519b 9c3d
00000330: a523 ccbc 9139 3dbd 6d91 5bbc b9c8 533d
00000340: 957c f4bc 196c 08be 238f 0ebd 6f07 b03d
00000350: 25a7 05bd 78e8 5ebd e640 893d d4a8 f33c
00000360: d3ee 45bd cadc 7dba 264f 143d e3cd dabc
00000370: ffcc f1bc 1baa 8cbd 3f57 313d ab14 01be
00000380: 9a46 a73c e6a0 40bc ad91 3bbd 7740 86bc
00000390: 6a4a 1a3d cab6 a03c 2e8e 43bc ea1c 2dbd
000003a0: 3834 38bc 089e 803d c53b 08bc d31a a9bb
000003b0: 1f1e 24be 634a 4ebc d666 4ebd 7d31 bcbb
000003c0: b34b 833d 1cd5 6f3d c287 a5bc 8922 31bd
000003d0: e6fc ab3d c570 75bc d182 d63c a76e 01bd
000003e0: a219 41bd 7017 ddbc 01c3 4cbd a98b 4e3b
000003f0: f9d9 9cbb 9f2e 543c 4fff 103d 4d6b 1a3d

fc2.bias f4 [300]
0.035420053 0.025017511 0.007979086 0.05111062 0.006479257 0.008889249 -0.033084307 0.013417607
0.055801254 0.042306032 -0.04741722 -0.046128523 -0.01932186 0.0063450905 -0.014159716 -0.02702731
-0.019214498 0.03506425 0.012998193 -0.04943508 0.057416536 0.05143368 -0.043841954 0.0072894995
-0.009483465 -0.07622416 0.024126893 0.037346352 0.045597244 0.038562663 0.0053571193 -0.01095895
0.024599109 0.00011624252 -0.05403829 -0.006076111 0.009141845 -0.019139918 0.026034761 -0.031508557
0.02747349 -0.023037998 -0.005175828 0.004285707 0.006292403 -0.023621239 -0.06255971 -0.04557758
-0.04567726 -0.03919685 -0.011348082 0.0027431531 0.0040479074 -0.011138713 0.014568528 -0.05595987
-0.06410247 -0.057931587 -0.09190794 -0.060102522 0.029500127 0.035056163 -0.03883426 -0.02277134
0.0500265 0.019905116 0.02863474 -0.048054427 0.019581014 -0.018007873 0.056929383 -0.049695008
0.0055483133 -0.0029052487 0.035438985 -0.029571915 -0.05742074 -0.017362148 -0.04656447 -0.050360594
-0.019018468 -0.026355606 -0.026062926 -0.0035973997 -0.008635444 -0.011224411 0.025789982 -0.06082766
-0.023328492 0.035782557 0.0044056713 -0.07099418 0.047893386 0.0032640265 0.00824352 -0.009874552
-0.03743112 -0.056294225 -0.04602765 0.070343725 0.042776708 -0.014007597 -0.04659488 -0.02977036
-0.0072259684 -0.06495649 -0.029451232 -0.005123719 0.0029685074 0.020858144 0.027907532 0.026445495
0.034536894 -0.03244882 -0.059433512 0.0075773774 0.06968178 0.057818726 -0.00794448 0.019168392
-0.002964219 -0.054003216 0.016396368 0.061447825 0.009148589 0.022829158 0.044738475 -0.024590665
0.0032486806 0.038625676 0.025918702 -0.01002406 0.017454688 -0.02934684 0.030671963 -0.0021987283
0.0040360605 0.04292566 -0.020587623 -0.049011055 -0.05732645 -0.050238974 -0.053841796 -0.010781078
-0.057330508 -0.019487338 -0.005239633 0.010407275 -0.013049023 0.013703119 -0.037835363 0.012126521
-0.013164576 0.013970005 -0.050050586 -0.010948715 0.007107087 0.033117753 -0.032563724 0.0063619437
0.026129067 0.030334525 -0.03427274 0.018581886 -0.06775612 -0.032505073 0.003224564 0.028101817
-0.083011076 0.0033279292 -0.00029066508 -0.053751126 -0.029426714 0.034326605 0.04308417 -0.04512365
-0.010282546 0.027689004 -0.033255793 -0.004552972 0.075003974 0.0337539 0.027060814 -0.04393432
0.045523822 -0.0008387539 0.019569036 0.028203972 0.0051185614 -0.037159175 -0.06048085 0.027844654
-0.019601654 0.023947285 0.05204425 0.014498036 -0.033939406 -0.028015137 -0.006304191 0.01698949
0.010844175 -0.008551613 -0.034020334 0.019565929 0.004891614 0.08423426 0.021067457 -0.051492214
-0.036333498 0.0138565125 0.003439085 0.019226396 -0.059870996 -0.0034525413 -0.038369875 0.023175715
-0.049883947 -0.005650795 0.03069933 0.049849715 -0.030266425 -0.015022185 0.034415025 -0.0325056
0.037663892 0.04530678 -0.004269751 0.009901113 -0.051208984 0.003998085 0.007383389 -0.013799273
-0.015226758 0.036513876 0.05581319 -0.021811001 -0.092495844 -0.036741205 -0.038994238 -0.04733464
0.010918174 0.044053208 -0.032647673 -0.095088884 0.05204496 -0.063352115 0.031284668 0.0011360173
0.021013038 -0.01348155 -0.052024636 0.011735896 0.025499105 0.004250969 -0.07195217 -0.02737919
00000000: 9e14 113d 86f1 cc3c b6ba 023c 5f59 513d
00000010: f24f d43b 36a4 113c 6983 07bd 86d5 5b3c
00000020: db8f 643d 1749 2d3d 8f38 42bd 43f1 3cbd
00000030: e148 9ebc 7aea cf3b 27fe 67bc 6168 ddbc
00000040: b967 9dbc 889f 0f3d 5ff6 543c 707c 4abd
00000050: 9a2d 6b3d 1fac 523d 9f93 33bd c1dc ee3b
00000060: 8960 1bbc 6a1b 9cbd c3a5 c53c 7df8 183d
00000070: 2dc4 3a3d e2f3 1d3d c68a af3b 2b8d 33bc
00000080: 1284 c93c 3ac7 f338 4157 5dbd 1d1a c7bb
00000090: adc7 153c 51cb 9cbc da46 d53c 1e0f 01bd
000000a0: 1610 e13c 2fba bcbc fe99 a9bb 1e6f 8c3b
000000b0: 8130 ce3b 5481 c1bc 4e1f 80bd 8eaf 3abd
000000c0: 1418 3bbd e08c 20bd 4eed 39bc 79c6 333b
000000d0: 4fa4 843b 267f 36bc d6b0 6e3c 2d36 65bd
000000e0: 2848 83bd ac49 6dbd 3b3a bcbd 102e 76bd
000000f0: 40aa f13c 0d97 0f3d ac10 1fbd f68a babc
00000100: 96e8 4c3d 0e10 a33c 6793 ea3c b8d4 44bd
00000110: 5d68 a03c 3f85 93bc c92e 693d fe8c 4bbd
00000120: a0ce b53b fc65 3ebb 7828 113d cd40 f2bc
00000130: 0332 6bbd 103b 8ebc 63ba 3ebd e946 4ebd
00000140: 9ecc 9bbc b6e7 d7bc eb81 d5bc 5ac2 6bbb
00000150: ad7b 0dbc 98e6 37bc 8345 d33c 6d26 79bd
00000160: 651b bfbc bb90 123d 735d 903b 6665 91bd
00000170: db2b 443d 47e9 553b d40f 073c dfc8 21bc
00000180: 6051 19bd c694 66bd 7d87 3cbd 5f10 903d
00000190: a136 2f3d 1f80 65bc 46da 3ebd f8e0 f3bc
000001a0: d1c7 ecbb e907 85bd b643 f1bc dfe4 a7bb
000001b0: 4a8b 423b b3de aa3c 569e e43c 39a4 d83c
000001c0: 8f76 0d3d 0ee9 04bd 8e70 73bd a64b f83b
000001d0: 52b5 8e3d 54d3 6c3d 9029 02bc 0807 9d3c
000001e0: 5843 42bb 7a32 5dbd ad51 863c b7b0 7b3d
000001f0: f7e3 153c 3704 bb3c b13f 373d 5d72 c9bc
00000200: d1e7 543b f535 1e3d 7553 d43c f43b 24bc
00000210: 22fd 8e3c c968 f0bc c543 fb3c 8a18 10bb
00000220: ee40 843b d1d2 2f3d 60a7 a8bc d1bf 48bd
00000230: 24cf 6abd 62c7 4dbd 3789 5cbd 1ea3 30bc
00000240: 65d3 6abd e9a3 9fbc 3ab1 abbb 4683 2a3c
00000250: 92cb 55bc 0c83 603c 41f9 1abd 51ae 463c
00000260: 3cb0 57bc 73e2 643c d801 4dbd 3d62 33bc
00000270: 91e2 e83b 7ba6 073d 8a61 05bd da77 d03b
00000280: a00c d63c 1c80 f83c 9361 0cbd 0a39 983c
00000290: b8c3 8abd 0a24 05bd 3553 533b c835 e63c
000002a0: b601 aabd 6319 5a3b 6864 98b9 242a 5cbd
000002b0: 4b10 f1bc 0e9a 0c3d 0779 303d 94d3 38bd
000002c0: 2078 28bc 0dd4 e23c 3a37 08bd 1931 95bb
000002d0: af9b 993d 8841 0a3d a4ae dd3c 79f4 33bd
000002e0: 3077 3a3d d2df 5bba 3e4f a03c 040c e73c
000002f0: 9bb9 a73b 3834 18bd c5ba 77bd 791a e43c
00000300: a693 a0bc 192d c43c 5a2c 553d 2c89 6d3c
00000310: 0c04 0bbd 0080 e5bc 6393 cebb 8b2d 8b3c
00000320: c4ab 313c 111c 0cbc e858 0bbd ba48 a03c
00000330: d549 a03b 0383 ac3d a995 ac3c 80e9 52bd
00000340: 6fd2 14bd 6d06 633c 4662 613b ad80 9d3c
00000350: 4a3b 75bd 0844 62bb bb29 1dbd ffda bd3c
00000360: 1c53 4cbd 4e2a b9bb 297d fb3c 372f 4c3d
00000370: 4bf1 f7bc 9c1f 76bc c5f6 0c3d 9824 05bd
00000380: 7445 1a3d 9a93 393d 44e9 8bbb 4738 223c
00000390: 83c0 51bd 5e02 833b 5bf0 f13b 5916 62bc
000003a0: a779 79bc 938f 153d 5f9c 643d fcac b2bc
000003b0: 766e bdbd f27d 16bd 6cb8 1fbd f8e1 41bd
000003c0: 24e2 323c 2371 343d 91b9 05bd f6bd c2bd
000003d0: 192d 553d c1be 81bd 5a24 003d 6ae6 943a
000003e0: 8923 ac3c b8e1 5cbc c917 55bd ea47 403c
000003f0: 80e3 d03c b64b 8b3b a95b 93bd 534a e0bc

fc3.weight f4 [200, 300]
-0.028964613 0.0808919 0.02831738 -0.014342565 -0.086028084 -0.0017013681 0.066301204 0.06705746
-0.068860374 -0.025801709 0.038014654 -0.04799136 0.00338527 -0.04724487 0.0409384 -0.08748428
0.009952098 0.022929594 0.06828296 -0.019240404 0.024305103 -0.068823636 0.1283209 0.066571206
-0.09527761 -0.05768459 0.03282237 0.026685473 -0.117574714 0.046760883 0.01591271 -0.03552851
-0.035874553 0.0058514406 -0.09488859 0.08712597 0.0034802547 0.0029322817 -0.034233846 0.10834579
-0.038115434 -0.071351655 -0.030143151 -0.11526103 0.072071195 -0.019258957 0.08773031 -0.05539687
-0.027048122 -0.020807883 0.08961825 -0.0038290906 -0.034986142 0.02220162 0.033068564 -0.010050949
0.05857325 0.023804832 0.17297214 -0.12170251 0.011366957 -0.07622945 -0.053094387 -0.13498347
0.035470884 0.18448623 0.040089518 0.09777148 0.005273106 -0.025563994 0.08841774 -0.01307415
0.07504101 -0.013780907 -0.008664806 -0.030623257 0.11228729 0.005715356 -0.026149534 0.056239974
-0.00025239383 -0.09083109 0.1027567 -0.053731114 0.04097889 0.027754055 -0.014089478 0.05546645
0.022460891 0.02781737 -0.078298226 0.07794028 0.08804013 0.08239739 0.023560122 -0.11517498
0.14294831 -0.10868425 0.050315592 -0.0060850084 0.01927068 -0.019084973 -0.062026184 -0.01793068
-0.006639372 0.052015997 -0.055016126 0.0018200437 0.15331094 -0.01575957 0.00328026 -0.049193073
-0.07107871 -0.094455995 -0.07839599 -0.07904992 -0.05333652 0.005489333 -0.046975344 -0.027642246
0.03715286 0.19885835 0.1175389 0.05348408 -0.0425057 0.025594179 -0.027553316 0.046062242
0.027032422 0.010557384 0.058141574 0.008255628 -0.07986989 0.037882973 0.04142089 0.017113976
-0.00050810236 -0.019856194 -0.0002614519 -0.051300425 0.010386473 0.0010695725 0.0331251 0.013629382
-0.012067491 -0.17940532 -0.047238566 0.0015199725 0.008762476 0.022923673 -0.14929071 -0.103429966
0.023063483 0.052924838 -0.042328637 0.097134866 -0.07270605 0.02763037 -0.14299023 -0.06981228
0.044638965 0.04772467 0.0446704 -0.033656675 -0.06369837 0.026921848 0.23294154 0.035384193
0.092182614 -0.019004213 -0.055353805 0.08149229 0.08634803 -0.0030203098 0.022432972 -0.08636651
0.12754874 0.02306819 -0.034811478 -0.15118174 0.013667943 0.0038899314 -0.063843556 -0.044592984
-0.033160813 0.016011907 0.011684059 -0.01519297 0.1316659 0.09361912 -0.024569964 0.0045113843
0.052898664 0.07767361 0.054428775 -0.010262421 0.013611284 -0.13709512 0.066344336 0.05514767
-0.034062125 0.031504396 -0.045520503 0.028296174 -0.11007262 0.040526986 0.025480235 0.072898224
0.028815178 0.03053715 0.008578155 0.08598613 0.08874742 0.07375193 -0.023459468 -0.011465954
0.11066056 -0.016861705 0.032472566 -0.010924543 0.111141026 0.035467096 -0.0106253065 0.055915266
-0.07570281 0.021505838 0.04281221 -0.09473496 -0.0519278 0.07047493 0.0059617492 0.0047626356
-0.06522793 -0.010878215 -0.010236747 -0.04483116 -0.06644827 0.020398324 -0.12131487 0.07202411
0.055799462 0.0031654476 0.13754803 -0.023507629 0.032372463 0.051960222 0.065372005 0.038859587
0.22145863 0.05492501 0.029337108 -0.05739079 -0.07083892 0.0948595 -0.017869676 -0.11676423
00000000: 3247 edbc a7aa a53d daf9 e73c 14fd 6abc
00000010: 7e2f b0bd 7100 dfba edc8 873d 6c55 893d
00000020: ab06 8dbd 1b5e d3bc 41b5 1b3d 9792 44bd
00000030: 68db 5d3b d683 41bd 06af 273d f52a b3bd
00000040: 200e 233c d8d6 bb3c f0d7 8b3d 0d9e 9dbc
00000050: 7f1b c73c 68f3 8cbd 8e66 033e 7c56 883d
00000060: e820 c3bd ad46 6cbd c070 063d 7e9b da3c
00000070: 03cb f0bd 5788 3f3d 5f5b 823c 5886 11bd
00000080: 32f1 12bd 71bd bf3b f354 c2bd 1a6f b23d
00000090: fc14 643b 862b 403b ca38 0cbd 66e4 dd3d
000000a0: ee1e 1cbd d120 92bd c5ee f6bc fa0d ecbd
000000b0: 109a 933d f6c4 9dbc f3ab b33d d4e7 62bd
000000c0: 0694 ddbc 4b75 aabc c689 b73d 7bf1 7abb
000000d0: a14d 0fbd 2ce0 b53c e772 073d bcac 24bc
000000e0: 81ea 6f3d 5a02 c33c 9c1f 313e 2a3f f9bd
000000f0: 793c 3a3c 301e 9cbd 8079 59bd 1b39 0abe
00000100: eb49 113d f5e9 3c3e e834 243d 6a3c c83d
00000110: 05ca ac3b 956b d1bc 5c14 b53d f634 56bc
00000120: 1aaf 993d 50c9 61bc d5f6 0dbc a0dd fabc
00000130: e1f6 e53d e247 bb3b 8c37 d6bc e35b 663d
00000140: ba53 84b9 a705 babd 1b72 d23d 2815 5cbd
00000150: 7bd9 273d 795c e33c 8ed7 66bc ca30 633d
00000160: e7ff b73c 41e1 e33c d25a a0bd 279f 9f3d
00000170: 624e b43d f6bf a83d 2801 c13c dce0 ebbd
00000180: 0b61 123e d995 debd b917 4e3d c064 c7bb
00000190: 8cdd 9d3c 1758 9cbc 2b0f 7ebd 5de3 92bc
000001a0: 178f d9bb ba0e 553d 9758 61bd 888e ee3a
000001b0: 8bfd 1c3e 371a 81bc a1f9 563b ad7e 49bd
000001c0: b791 91bd 2572 c1bd 148e a0bd ede4 a1bd
000001d0: 6577 5abd dddf b33b 3869 40bd fe71 e2bc
000001e0: 992d 183d 86a1 4b3e 3cb8 f03d 1f12 5b3d
000001f0: 751a 2ebd e2aa d13c 7eb7 e1bc c3ab 3c3d
00000200: 1973 dd3c e1f8 2c3c dc25 6e3d 9d42 073c
00000210: d392 a3bd 2d2b 1b3d f3a8 293d 9c32 8c3c
00000220: 2c32 05ba 75a9 a2bc 7b13 89b9 6520 52bd
00000230: 062c 2a3c e630 8c3a 2fae 073d c54d 5f3c
00000240: bab6 45bc 07b6 37be 3a7d 41bd d039 c73a
00000250: 7d90 0f3c 6dca bb3c aadf 18be 17d3 d3bd
00000260: a1ef bc3c b7c7 583d cb60 2dbd a5ee c63d
00000270: e9e6 94bd 1659 e23c 086c 12be bef9 8ebd
00000280: 59d7 363d f27a 433d 4ff8 363d 95db 09bd
00000290: 4a74 82bd 358b dc3c 3a88 6e3e 04ef 103d
000002a0: 3dca bc3d b9ae 9bbc acba 62bd 6ee5 a63d
000002b0: 3cd7 b03d 64f0 45bb 5ac5 b73c ede0 b0bd
000002c0: 239c 023e 80f9 bc3c 7b96 0ebd 63cf 1abe
000002d0: 82ef 5f3c 38ee 7e3b 69c0 82bd 22a7 36bd
000002e0: a2d3 07bd 672b 833c 7f6e 3f3c efeb 78bc
000002f0: 6dd3 063e 62bb bf3d f346 c9bc 3cd4 933b
00000300: 45ac 583d 5713 9f3d b5f0 5e3d b723 28bc
00000310: dd01 5f3c aa62 0cbe 8adf 873d 86e2 613d
00000320: ba84 0bbd c10a 013d b573 3abd 61cd e73c
00000330: c16d e1bd a0ff 253d edbb d03c aa4b 953d
00000340: cf0d ec3c 0c29 fa3c 648b 0c3c 7f19 b03d
00000350: 35c1 b53d 400b 973d 122e c0bc b2db 3bbc
00000360: 01a2 e23d 8f21 8abc f401 053d dbfc 32bc
00000370: e89d e33d f245 113d c415 2ebc 6807 653d
00000380: 130a 9bbd 032d b03c db5b 2f3d 6704 c2bd
00000390: 3fb2 54bd 2955 903d c75a c33b e20f 9c3b
000003a0: 3996 85bd 8a3a 32bc 07b8 27bc e1a0 37bd
000003b0: 0816 88bd 631a a73c ee73 f8bd 6081 933d
000003c0: fa8d 643d 6673 4f3b 64d9 0c3e 1293 c0bc
000003d0: fd98 043d 3ed4 543d c2e1 853d 3b2b 1f3d
000003e0: 0dc6 623e 0cf9 603d 6054 f03c 9b12 6bbd
000003f0: ff13 91bd b345 c23d 6d63 92bc 1622 efbd

fc3.bias f4 [200]
0.034505364 -0.025572117 0.009296501 -0.07925987 0.04420173 0.0063022254 -0.024992011 0.044483617
0.08379261 -0.0489254 -0.025285397 0.059358306 0.009921578 0.010518279 -0.040720835 -0.0021381946
0.057039816 -0.04921914 -0.074985504 0.015299182 -0.006284335 -0.0060783187 0.009456779 -0.03651573
-0.08550751 0.023477208 0.00083782553 0.048075125 0.010694361 -0.04137402 -0.033803076 0.022741642
-0.030471453 -0.030234111 0.02660281 -0.019619841 -0.034818042 -0.018146552 0.045498755 -0.047392394
0.021935267 0.068608254 -0.05845637 -0.009240283 -0.027275078 0.023717308 0.04698021 0.0058442717
0.073509894 -0.014599036 -0.011324592 0.07302877 0.06764774 -0.012798601 -0.0038713287 -0.0065967496
0.08287483 0.038766563 -0.016828606 -0.06322421 -0.03867616 -0.006107505 0.013497153 0.07527448
-0.034199588 0.034558326 -0.019867452 -0.011095909 0.051086057 -0.031156067 -0.0047422107 -0.037698682
0.0775562 0.0075953593 -0.027698733 -0.015446323 -0.0063400967 -0.0034871583 0.04389773 -0.037077274
-0.054021955 -0.029985078 -0.043681663 0.014704581 0.07260787 -0.040885862 0.037804443 -0.049103852
-0.043242335 -0.0049478863 -0.032368917 -0.010649614 0.017642224 0.002381631 -0.048727643 0.013244924
0.047281105 0.051960167 -0.041763943 0.009083945 0.039140657 -0.007744436 0.02617166 0.022173768
0.060065567 -0.020342708 -0.055128884 -0.00541652 -0.038712382 -0.010978953 -0.03529269 -0.008641075
-0.00771897 0.005053712 -0.0283767 0.06402042 0.009506763 -0.059070427 0.02678894 -0.028350161
-0.029097395 -0.0026416124 -0.026032925 -0.000110527595 -0.0026740807 -0.016035357 -0.037804198 -0.041305356
0.062454812 0.018971784 0.02724886 0.05487621 -0.005992159 0.02493338 0.070066884 -0.059868295
-0.01072441 -0.042565007 0.047579773 -0.02420293 0.031169448 -0.04798216 0.025983095 0.0218428
-0.012684892 0.076989755 0.048483964 0.014237711 0.04539788 -0.002045157 -0.053521577 0.027980713
-0.040732957 -0.020772927 0.043554273 0.04629078 -0.035108462 0.0064670974 0.057892893 0.04460824
-0.025082804 -0.036030114 0.04599756 0.026495166 -0.03837727 0.0005741786 -0.024461806 -0.022090659
-0.0067200484 -0.030177593 0.00432463 0.0016768607 -0.045910154 0.016686669 0.0096798 -0.029104983
-0.0003859866 0.030757884 -0.003321632 -0.038929544 0.06937285 0.058716003 -0.028117847 0.03631137
0.073143676 0.002415056 -0.027335342 -0.027211482 0.03233195 -0.04382306 -0.020609502 0.029453415
-0.038772233 -0.008444645 -0.038817715 0.015561101 -0.031502604 -0.0073782 0.05121634 -0.012129581
00000000: 7f55 0d3d 9e7c d1bc 5a50 183c 0053 a2bd
00000010: e00c 353d e682 ce3b 0cbc ccbc 7434 363d
00000020: 769b ab3d 0066 48bd 5223 cfbc b221 733d
00000030: 1d8e 223c dc54 2c3c e4ca 26bd f420 0cbb
00000040: 95a2 693d 029a 49bd 0092 99bd 6ca9 7a3c
00000050: d3ec cdbb a22c c7bb 9bf0 1a3c 8591 15bd
00000060: 901e afbd 4653 c03c 85a1 5b3a 6cea 443d
00000070: 6737 2f3c ce77 29bd 1875 0abd ae4c ba3c
00000080: 459f f9bc 87ad f7bc 23ee d93c cab9 a0bc
00000090: 5d9d 0ebd 14a8 94bc e75c 3a3d 871e 42bd
000000a0: 97b1 b33c 7c82 8c3d f26f 6fbd 8e64 17bc
000000b0: fc6f dfbc cd4a c23c 526e 403d 4e81 bf3b
000000c0: 5b8c 963d cc30 6fbc c88a 39bc 1c90 953d
000000d0: e68a 8a3d 39b1 51bc 1eb6 7dbb 8c29 d8bb
000000e0: 47ba a93d b0c9 1e3d 25dc 89bc b27b 81bd
000000f0: e56a 1ebd 7721 c8bb 2a23 5d3c 8229 9a3d
00000100: de14 0cbd 088d 0d3d 11c1 a2bc 9ecb 35bc
00000110: 9d3f 513d 023b ffbc 8c64 9bbb ef69 1abd
00000120: c9d5 9e3d 7ee2 f83b 74e8 e2bc 9312 7dbc
00000130: 96c0 cfbb cf88 64bb 1bce 333d 57de 17bd
00000140: 2046 5dbd 44a3 f5bc 8beb 32bd 7ceb 703c
00000150: 6fb3 943d ef77 27bd d5d8 1a3d 1f21 49bd
00000160: e01e 31bd e121 a2bb 4595 04bd b87b 2ebc
00000170: 6d86 903c 2315 1c3b a396 47bd 3d01 593c
00000180: d5a9 413d 2fd4 543d ab10 2bbd d4d4 143c
00000190: f451 203d 0ac5 fdbb f365 d63c c3a5 b53c
000001a0: 5007 763d c0a5 a6bc d3ce 61bd 107d b1bb
000001b0: e090 1ebd 11e1 33bc 118f 10bd 4c93 0dbc
000001c0: 6aef fcbb 9c99 a53b 4176 e8bc 231d 833d
000001d0: 41c2 1b3c d5f3 71bd 7b74 db3c 993e e8bc
000001e0: a95d eebc e71e 2dbb 0043 d5bc 0dcb e7b8
000001f0: a13f 2fbb 955c 83bc 93d8 1abd ce2f 29bd
00000200: 9ed0 7f3d b76a 9b3c 0039 df3c e0c5 603d
00000210: df59 c4bb 1641 cc3c 3a7f 8f3d 7538 75bd
00000220: 70b5 2fbc a558 2ebd 02e3 423d 3945 c6bc
00000230: 1257 ff3c f188 44bd 80da d43c acef b23c
00000240: 4bd4 4fbc ceac 9d3d 1f97 463d 4a45 693c
00000250: 21f3 393d 0a08 06bb 7139 5bbd cf37 e53c
00000260: 9ad7 26bd fc2b aabc f765 323d 679b 3d3d
00000270: e4cd 0fbd f2e9 d33b 1921 6d3d 21b7 363d
00000280: 747a cdbc 5094 13bd f067 3c3d 640c d93c
00000290: 7c31 1dbd 7984 163a 2064 c8bc 78f7 b4bc
000002a0: da33 dcbb 0037 f7bc a0b5 8d3b 1cca db3a
000002b0: 490c 3cbd 7bb2 883c 0698 1e3c 936d eebc
000002c0: 3f5e cab9 f5f7 fb3c bdaf 59bb 9674 1fbd
000002d0: 5a13 8e3d 3180 703d 6657 e6bc 3bbb 143d
000002e0: 5acc 953d eb45 1e3b 5eee dfbc 9dea debc
000002f0: 826e 043d cf7f 33bd 42d5 a8bc 4a48 f13c
00000300: a2cf 1ebd 695b 0abc 53ff 1ebd fdf3 7e3c
00000310: e008 01bd d4c4 f1bb 3ac8 513d 26bb 46bc

fc4.weight f4 [100, 200]
-0.023957621 0.054693222 -0.12002766 -0.005052048 0.114616595 -0.095001616 -0.0011901747 -0.022169868
0.1355296 -0.09532058 -0.11450895 0.028102547 -0.0018348873 -0.05210904 0.008014754 0.047291588
0.0031985682 0.017337542 0.059674054 -0.092128165 0.07042954 0.007602448 -0.14213951 -0.054823108
-0.17930862 0.019063622 -0.0316913 0.055413466 0.08560394 -0.019339303 -0.025975287 0.13092743
0.00297372 -0.11994071 -0.14272074 0.0935071 -0.050194837 0.026960162 -0.07313255 -0.14129202
-0.043454885 0.03151286 0.09457109 -0.13584867 0.0066325804 0.03071296 0.0128066335 0.11274383
0.04932748 0.08376511 -0.001782087 -0.062450614 -0.15297428 -0.007704889 0.032210533 0.07566242
0.05855673 0.045489285 -0.019103236 0.023264647 -0.119360454 -0.0843929 -0.13642782 -0.0147222765
0.13564226 0.09283409 0.052189644 -0.023480833 -0.06522168 0.020641197 0.13561334 0.044935375
-0.031044189 -0.054742042 0.05291146 -0.051611293 -0.10232757 -0.13131711 -0.033962317 0.04833794
0.05059225 0.12646815 -0.1806909 -0.050904896 0.012874112 0.08505462 0.07197897 0.0513271
0.0074977605 0.031982195 -0.026236026 -0.03381558 0.0032622218 -0.09072874 0.049450237 0.053676497
-0.048568983 -0.00037859398 -0.084737025 0.017305763 0.061836958 -0.05104369 -0.10931948 0.03747987
-0.009807788 -0.094985425 -0.033468783 -0.07548567 -0.12949874 -0.0637588 0.049899545 0.03770926
-0.107379325 -0.05415806 0.06532641 0.045672175 -0.0726862 0.023052907 0.07760541 -0.025724476
0.037406445 -0.060287237 -0.103900634 0.001318717 0.010726637 0.09898184 -0.11378054 -0.0018073858
-0.052370135 0.09639981 -0.13412309 -0.1069052 0.037093826 -0.026586007 -0.009085796 -0.1340546
0.0918804 -0.012361512 -0.05744063 0.010645912 -0.085914925 0.018460762 0.056644447 0.00909088
-0.053324938 0.14354743 -0.045367938 -0.008017333 -0.24067341 0.07998988 -0.13951959 -0.014234249
0.07087888 -0.09213733 -0.029384462 -0.0909961 -0.071089074 -0.1525136 -0.003874945 -0.12541182
-0.13663946 -0.061797813 -0.05700259 -0.059480853 -0.04178176 -0.10133593 0.07973374 -0.03440484
-0.0021753442 -0.021382166 0.093099035 0.018940752 -0.019292118 0.092171654 -0.04974883 0.03584046
-0.10168362 0.06867882 0.0012702179 0.017079318 0.016655881 -0.10001844 0.08698292 -0.13409768
-0.08160742 0.06208747 -0.08479377 -0.041229866 0.10071478 0.08176832 -0.06212063 0.08927998
0.02795814 -0.034333646 -0.011500395 -0.068522006 -0.062227525 0.036762256 0.0465609 -0.031851023
0.12408246 -0.09486362 0.24121903 0.121490136 -0.019011302 -0.048040546 0.21989192 0.086584054
0.02044649 -0.025354123 -0.15150471 -0.4287569 0.006865912 -0.09576748 0.30265972 -0.32519603
-0.062225387 0.03917236 0.4834717 -0.108247705 -0.22931647 0.090244085 0.111363 0.100422904
-0.16812623 0.016387613 -0.23566179 0.17020172 -0.004583474 0.12922235 0.11407336 -0.06802789
-0.06963652 -0.03754014 -0.025475921 -0.03853532 0.19003908 0.07340584 -0.025894562 -0.23833817
0.048997518 0.027590826 0.08742832 0.17796616 0.009479459 0.0070844097 0.12621455 -0.11081422
-0.029226186 -0.12180891 -0.30516466 0.13593882 0.4337958 0.089181006 -0.1211584 -0.08655937
00000000: c642 c4bc 0006 603d 10d1 f5bd a68b a5bb
00000010: 1bbc ea3d 3590 c2bd a3ff 9bba 959d b5bc
00000020: 45c8 0a3e 7037 c3bd ab83 eabd 5037 e63c
00000030: 9a80 f0ba 4a70 55bd 5150 033c d3b4 413d
00000040: 129f 513b 7607 8e3c c86c 743d b1ad bcbd
00000050: 5d3d 903d f51d f93b 058d 11be 328e 60bd
00000060: ae9c 37be 502b 9c3c bdce 01bd 3bf9 623d
00000070: 1e51 af3d 756d 9ebc 20ca d4bc d711 063e
00000080: bee2 423b 7aa3 f5bd 6325 12be a780 bf3d
00000090: 1a99 4dbd 8fdb dc3c 85c6 95bd dbae 10be
000000a0: c0fd 31bd a113 013d 7dae c13d ea1b 0bbe
000000b0: 1e56 d93b bf99 fb3c ead2 513c 3de6 e63d
000000c0: 9d0b 4a3d 0b8d ab3d eb94 e9ba 37cc 7fbd
000000d0: 4aa5 1cbe 4b79 fcbb 31ef 033d e6f4 9a3d
000000e0: 2fd9 6f3d f952 3a3d 647e 9cbc 8095 be3c
000000f0: 4173 f4bd 2fd6 acbd bcb3 0bbe b435 71bc
00000100: cee5 0a3e cd1f be3d cfc4 553d e05a c0bc
00000110: f292 85bd ba17 a93c 39de 0a3e 280e 383d
00000120: 6250 febc 3139 60bd b0b9 583d 5d66 53bd
00000130: 1e91 d1bd fe77 06be 121c 0bbd 01fe 453d
00000140: d239 4f3d de80 013e 0907 39be a781 50bd
00000150: f1ed 523c 1e31 ae3d b669 933d 5d3c 523d
00000160: c6af f53b c3ff 023d efec d6bc 3582 0abd
00000170: 00cb 553b fdcf b9bd 558c 4a3d e3db 5b3d
00000180: 45f0 46bd 067e c6b9 9b8a adbd d1c4 8d3c
00000190: c048 7d3d 3013 51bd e4e2 dfbd 7e84 193d
000001a0: d8b0 20bc b887 c2bd 9016 09bd 3b98 9abd
000001b0: 519b 04be f993 82bd 7763 4c3d 0675 1a3d
000001c0: b1e9 dbbd d8d4 5dbd dac9 853d bf12 3b3d
000001d0: 81dc 94bd 73d9 bc3c 96ef 9e3d 23bc d2bc
000001e0: 8037 193d c0ef 76bd dbc9 d4bd cdd8 ac3a
000001f0: c7be 2f3c feb6 ca3d c605 e9bd cee5 ecba
00000200: 1182 56bd 436d c53d 9057 09be 1df1 dabd
00000210: b2ef 173d e6ca d9bc 97dc 14bc 9c45 09be
00000220: cb2b bc3d f087 4abc de46 6bbd 316c 2e3c
00000230: 2af4 afbd 063b 973c 0204 683d eaf1 143c
00000240: 406b 5abd 19fe 123e bbd3 39bd 225b 03bc
00000250: 1773 76be bcd1 a33d 39de 0ebe c436 69bc
00000260: f228 913d 7fb2 bcbd afb7 f0bc 2a5c babd
00000270: 2697 91bd 862c 1cbe caf2 7dbb f56b 00be
00000280: 37eb 0bbe b41f 7dbd 8c7b 69bd 32a2 73bd
00000290: 5a23 2bbd 3689 cfbd 714b a33d 17ec 0cbd
000002a0: 3890 0ebb a729 afbc b5aa be3d a329 9b3c
000002b0: 810a 9ebc 7ec4 bc3d 6ec5 4bbd 72cd 123d
000002c0: 803f d0bd 7ba7 8c3d 717d a63a ede9 8b3c
000002d0: ea71 883c 78d6 ccbd 1a24 b23d e750 09be
000002e0: cb21 a7bd 6e4f 7e3d 5ba8 adbd a6e0 28bd
000002f0: 8d43 ce3d 2676 a73d 3472 7ebd 6cd8 b63d
00000300: 7808 e53c 70a1 0cbd 276c 3cbc 4455 8cbd
00000310: 4ae2 7ebd 0594 163d a4b6 3e3d 3876 02bd
00000320: f21e fe3d dc47 c2bd 1f02 773e d2cf f83d
00000330: 97bd 9bbc 2ac6 44bd 592b 613e fb52 b13d
00000340: 667f a73c 73b3 cfbc 0d24 1bbe 0686 dbbe
00000350: 72fb e03b be21 c4bd 37f6 9a3e 1880 a6be
00000360: 0ce0 7ebd 3273 203d 9a89 f73e f9b0 ddbd
00000370: f0d1 6abe e4d1 b83d 4912 e43d 86aa cd3d
00000380: 4829 2cbe 513f 863c 5351 71be 5c49 2e3e
00000390: f730 96bb dd52 043e 4b9f e93d 3552 8bbd
000003a0: 989d 8ebd b1c3 19bd e1b2 d0bc 36d7 1dbd
000003b0: 9b99 423e cd55 963d d520 d4bc ec0e 74be
000003c0: 9fb1 483d 2806 e23c 9e0d b33d c33c 363e
000003d0: bc4f 1b3c 5624 e83b 633e 013e 91f2 e2bd
000003e0: c16b efbc f376 f9bd 8b3e 9cbe 8c33 0b3e
000003f0: 7c1a de3e 88a4 b63d e521 f8bd 0a46 b1bd

fc4.bias f4 [100]
-0.0024346064 -0.067820795 -0.02163129 0.06198768 -0.03484756 0.031175787 0.049831446 -0.058601715
0.051783595 0.11760001 -0.018206943 -0.058720183 -0.018584156 0.003076502 0.014390469 0.031678386
-0.021461442 0.10586005 0.04780332 0.03185483 -0.04834563 0.08675972 0.089179665 0.0134580545
0.06766526 -0.04204478 0.025978304 -0.0031293468 0.005623468 -0.040854696 0.016128236 -0.004825308
0.019849235 -0.03651879 0.0077212323 -0.01911609 0.027434971 0.0012896111 -0.037154682 -0.0039665406
0.07976727 -0.023473036 0.051338524 0.022609776 0.039614324 -0.01616261 0.0030317812 0.08928036
-0.031596255 0.07043123 -0.033773426 0.023176117 0.06293442 0.052819878 0.0637545 -0.019644825
0.088188134 -0.034031756 0.096055835 0.008430647 0.03309203 0.007621484 0.06021028 0.018953457
0.064378545 0.02112417 -0.036423042 -0.0698265 -0.054250203 -0.037300613 -0.07194672 -0.05786758
0.10382906 0.03683687 0.0065595736 0.043770753 -0.039407995 0.05001498 -0.05215323 0.08091769
-0.02475745 0.09829066 -0.019393232 0.024968678 0.059654802 0.1030272 -0.028397327 0.0070447903
0.002074349 -0.004215285 0.068645105 -0.054580383 -0.034926716 0.029910687 0.07634305 0.025073273
0.09311233 0.06734317 0.08352045 -0.0017785917
00000000: eb8d 1fbb a1e5 8abd 1a34 b1bc cbe6 7d3d
00000010: 51bc 0ebd 5d64 ff3c 0f1c 4c3d 5a08 70bd
00000020: 091b 543d 46d8 f03d ba26 95bc 9384 70bd
00000030: cd3d 98bc 239f 493b 00c6 6b3c 32c1 013d
00000040: e8cf afbc 27cd d83d 6acd 433d 367a 023d
00000050: 1106 46bd 15af b13d d4a3 b63d 2c7f 5c3c
00000060: 1594 8a3d 2637 2cbd 74d0 d43c ba15 4dbb
00000070: 1245 b83b 4157 27bd 5d1f 843c 9e1d 9ebb
00000080: dd9a a23c ba94 15bd 6402 fd3b 5999 9cbc
00000090: 4ebf e03c 2b08 a93a 822f 18bd c1f9 81bb
000000a0: 065d a33d 864a c0bc 5848 523d 2338 b93c
000000b0: a142 223d 7367 84bc d9b0 463b 9fd8 b63d
000000c0: 136b 01bd 403e 903d 0156 0abd d7db bd3c
000000d0: c3e3 803d a859 583d b891 823d 2fee a0bc
000000e0: fb9b b43d e264 0bbd ecb8 c43d b220 0a3c
000000f0: 828b 073d a4bd f93b 0e9f 763d 4844 9b3c
00000100: e6d8 833d 980c ad3c 5430 15bd 3201 8fbd
00000110: 7635 5ebd 87c8 18bd cd58 93bd 8e06 6dbd
00000120: 55a4 d43d 42e2 163d b1f1 d63b f648 333d
00000130: 476a 21bd 82dc 4c3d a09e 55bd 2db8 a53d
00000140: 23d0 cabc 9d4c c93d 8ede 9ebc 1d8b cc3c
00000150: 9858 743d edff d23d 83a1 e8bc fcd7 e63b
00000160: cdf1 073b 6020 8abb ce95 8c3d ae8f 5fbd
00000170: 510f 0fbd 4207 f53c bf59 9c3d 7766 cd3c
00000180: adb1 be3d 37eb 893d c50c ab3d a21f e9ba
