checkpoints/critic_checkpoint_101.pth (torch, 885829 bytes, 11 tensors)

fc1.weight f4 [400, 33]
-0.29208082 0.23079383 -0.1342302 -0.4993276 -0.20244382 -0.04345805 0.3700989 0.3038633
-0.2623901 -0.17567797 -0.19963333 -0.085705735 -0.07657637 -0.007813918 -0.11950548 -0.009739332
-0.051816687 -0.18116988 0.26163888 0.829695 0.081353314 -0.5447815 -0.089985274 -0.19685167
0.092012465 0.22697483 0.075270206 0.5189998 -0.030004041 -0.023510898 -0.5711088 0.046075117
-0.08972693 -0.27462777 0.4282656 0.2083506 -0.10241803 -0.17117809 0.3151474 0.5165787
-0.033558376 -0.1283905 -0.050405826 -0.23247892 0.13159695 0.1838253 0.019948546 0.16067608
0.46988803 -0.11605543 -0.26410592 0.05040974 1.2308654 0.13391654 -0.37090698 -0.43678728
0.10487361 0.06253483 0.23070107 -0.013311978 0.4581618 -0.34639695 0.028180052 -0.44629034
-0.0027502961 -0.33239484 -0.6597236 0.35182372 -0.35877213 -0.61379355 0.26998618 1.0065446
0.6433637 0.015067282 0.45562515 0.06886636 0.13076296 0.063580364 0.1589165 0.35243723
0.5443794 -0.116632484 0.27663776 0.87281287 -0.26146567 0.09896877 0.20440823 -0.18906638
-0.089944065 -0.0647033 0.17723453 0.2778171 0.045176905 0.67841595 0.1378293 0.021193702
-0.6140438 -0.0364288 0.072456844 -0.03063063 0.1098738 0.36221206 -0.3221094 0.20645306
0.2661689 -0.24796161 0.13888347 -0.8642308 -0.2566546 0.06304283 0.01640022 0.075310804
-0.28666452 -0.12923059 -0.48717222 0.16902949 0.13409254 0.051816057 0.021439476 -0.15557241
0.070942506 0.04365336 -0.14136396 -0.22303525 -0.245742 0.32473522 0.6484024 0.23051524
0.027108755 -0.5868091 5.0593168e-05 -1.6328748 0.43505788 0.31838664 0.2145725 0.20216352
0.11880033 0.16615647 -0.08105866 -0.03246578 -0.06102381 0.05081041 0.107075654 -0.037415273
0.16393065 -0.7126138 -0.25378513 -0.043358024 -0.1372186 -0.047244586 0.0924426 0.1479188
0.091461904 -0.01701649 -0.02376813 -0.1603837 -0.14982621 0.021028848 0.35966843 0.14235523
-0.014640829 0.014560033 -0.19058922 0.0269568 0.40034044 -0.5838248 0.24667533 -0.06112704
-0.8402984 -0.046436906 0.35858753 -0.35348928 -0.5795691 0.23689322 -0.1446474 -0.2497154
-0.010964019 0.07195503 -0.38934693 0.111847565 0.415109 -0.46215776 -0.28862348 -0.28258294
0.30699125 -0.24346246 0.16572353 -0.05368991 0.09011911 -0.0051185824 0.29025948 0.37998274
0.65123314 -0.12864509 0.023274932 -0.6892733 -0.040999025 0.2886337 0.43479833 0.6332899
-0.18746905 -0.21908021 -0.499384 -0.01009842 0.69752324 0.26608163 0.17856097 -0.6488941
0.20811795 0.2526445 -0.13609403 -0.12039762 0.38764912 0.009852768 0.31071067 -0.20677479
0.3590401 0.7775525 0.0070866575 -0.2604688 -0.5697934 -0.060114812 0.12277612 0.1771079
-0.09021181 0.5609265 0.022960106 0.010258831 -0.5961666 -0.007298626 0.3989679 -0.34909785
0.5815375 0.14312649 -0.08046135 0.44537592 -0.5195074 0.29069915 0.100588195 0.09096557
0.0016123096 -0.3071934 0.034298893 -0.11441742 0.088908315 -0.16152386 -0.30534917 0.5524308
1.0748119 -0.31962338 0.27932763 0.24472687 -0.1766866 0.11283126 -0.22174771 -0.095328644
00000000: 9e8b 95be 3855 6c3e a473 09be dea7 ffbe
00000010: 6f4d 4fbe 1101 32bd 9a7d bd3e f893 9b3e
00000020: ff57 86be ede4 33be ae6c 4cbe 7d86 afbd
00000030: 12d4 9cbd f305 00bc 4abf f4bd b891 1fbc
00000040: bc3d 54bd 9984 39be 88f5 853e e466 543f
00000050: 919c a63d cd76 0bbf 334a b8bd 7c93 49be
00000060: 0871 bc3d 176c 683e 4427 9a3d 2cdd 043f
00000070: 09cb f5bc ed99 c0bc 3034 12bf 43b9 3c3d
00000080: c1c2 b7bd 039c 8cbe a145 db3e dc59 553e
00000090: 8bc0 d1bd 4f49 2fbe 005b a13e 803e 043f
000000a0: 8274 09bd cd78 03be 5776 4ebd f40e 6ebe
000000b0: 5ac1 063e b33c 3c3e 226b a33c 4588 243e
000000c0: 2a95 f03e 78ae edbd e438 87be 727a 4e3d
000000d0: ff8c 9d3f 6b21 093e 85e7 bdbe 95a2 dfbe
000000e0: fac7 d63d 4312 803d e73c 6c3e 7c1a 5abc
000000f0: 2f94 ea3e f15a b1be dad9 e63c 2b80 e4be
00000100: 503e 34bb a82f aabe a5e3 28bf 3d22 b43e
00000110: fbb0 b7be 9321 1dbf a13b 8a3e 74d6 803f
00000120: 7cb3 243f c3dc 763c b347 e93e ce09 8d3d
00000130: bae6 053e 6c36 823d 02bb 223e a772 b43e
00000140: 735c 0b3f 03dd eebd 77a3 8d3e aa70 5f3f
00000150: d4de 85be 23b0 ca3d 6450 513e 9e9a 41be
00000160: 9834 b8bd 2a83 84bd f87c 353e 0b3e 8e3e
00000170: 6b0b 393d abac 2d3f 2023 0d3e 6a9e ad3c
00000180: f931 1dbf 5e36 15bd 4164 943d 16ed fabc
00000190: 8405 e13d dc73 b93e 86eb a4be 6e68 533e
000001a0: 4a47 883e a6e9 7dbe 7837 0e3e 3b3e 5dbf
000001b0: 3b68 83be 991c 813d c159 863c 8d3c 9a3d
000001c0: b1c5 92be 0655 04be a36e f9be 1116 2d3e
000001d0: 8e4f 093e 133d 543d d7a1 af3c 604e 1fbe
000001e0: 4e4a 913d decd 323d b7c1 10be 5a63 64be
000001f0: caa3 7bbe b243 a63e b3fd 253f 300c 6c3e
00000200: 2e13 de3c 1f39 16bf 0034 5438 0b02 d1bf
00000210: e8bf de3e 9303 a33e e5b8 5b3e f403 4f3e
00000220: 964d f33d ec24 2a3e 1502 a6bd d6fa 04bd
00000230: 1af4 79bd 941e 503d 7b4a db3d c240 19bd
00000240: 70dd 273e dc6d 36bf 20f0 81be 2f98 31bd
00000250: 0883 0cbe 8a83 41bd 8c52 bd3d 0778 173e
00000260: 6150 bb3d 2b66 8bbc 62b5 c2bc a03b 24be
00000270: 0b6c 19be b144 ac3c 7626 b83e 92c5 113e
00000280: 16e0 6fbc 348d 6e3c d229 43be 82d4 dc3c
00000290: 6cf9 cc3e 8b75 15bf 7598 7c3e 5960 7abd
000002a0: cc1d 57bf a034 3ebd c998 b73e 8cfc b4be
000002b0: a45e 14bf 2394 723e 731e 14be 65b5 7fbe
000002c0: 6ea2 33bc 295d 933d 7b58 c7be 5610 e53d
000002d0: 2b89 d43e f19f ecbe 75c6 93be b6ae 90be
000002e0: f52d 9d3e 394e 79be 6eb3 293e f3e9 5bbd
000002f0: 5e90 b83d c8b9 a7bb e49c 943e 198d c23e
00000300: 37b7 263f 8abb 03be 12ab be3c 3774 30bf
00000310: 98ee 27bd ccc7 933e e39d de3e 491f 223f
00000320: e3f7 3fbe 9056 60be 42af ffbe d873 25bc
00000330: e290 323f da3b 883e b0d8 363e ec1d 26bf
00000340: df1c 553e 9f5a 813e 3c5c 0bbe 0793 f6bd
00000350: f279 c63e 816d 213c 7815 9f3e c5bc 53be
00000360: 1bd4 b73e ae0d 473f 3137 e83b 2b5c 85be
00000370: fbdd 11bf f33a 76bd 0c72 fb3d c65b 353e
00000380: f8c0 b8bd e198 0f3f d516 bc3c a814 283c
00000390: 609e 18bf 5029 efbb 8545 cc3e f4bc b2be
000003a0: a4df 143f c08f 123e ecc8 a4bd 5008 e43e
000003b0: 70fe 04bf 85d6 943e 2f01 ce3d 284c ba3d
000003c0: 2254 d33a 7448 9dbe ff7c 0c3d ae53 eabd
000003d0: 9015 b63d 8366 25be ba56 9cbe 1b6c 0d3f
000003e0: 7093 893f ada5 a3be 0804 8f3e ae99 7a3e
000003f0: 55ed 34be 1314 e73d d511 63be aa3b c3bd

fc1.bias f4 [400]
-0.6303791 -0.48228145 -0.47629496 -0.58448005 -0.30049703 -0.801245 -0.73945934 -0.6278719
-0.7778273 -0.53328544 -0.29575214 -0.44506118 -0.045542095 -0.30279166 -0.38709024 -0.670279
-0.35932913 -0.64074683 -0.19944513 -0.10370243 -0.6488154 -0.8719587 -0.28737548 -0.15551718
-0.6207066 -0.6570524 -1.027467 0.29698455 -0.5694798 -0.6139429 -0.3596173 -0.2786083
0.17358428 -0.62731403 -0.08177836 0.05359071 -0.8608485 -0.5284288 -0.018418493 -0.18796895
-0.2395894 -0.43304208 -0.21306126 -0.09965453 -0.2790741 -0.3691734 -0.6079056 -0.35496944
-0.13969932 -0.46477428 -0.5717803 -0.38910574 -0.4615214 -0.5245826 -0.5908403 -0.07997754
-0.12184565 -0.29251856 -0.5634654 -0.60921985 -0.3823406 -1.4371847 -0.27007714 -0.79976827
-0.16187684 -0.5113007 -0.5155484 -0.6243023 -0.16205402 -0.33060524 -0.8423295 -0.6442392
-0.5183173 -0.29851338 -0.39076146 -0.47384387 -0.46295506 -0.7860062 -0.636795 -0.34824333
-0.2760128 -0.5869858 -0.74843943 -0.4182313 -0.47271878 -0.425803 -0.8634398 -0.557507
-0.63399494 0.060576137 -0.67412907 -0.5365752 -0.5373783 -0.63678896 -0.51339257 -0.7762336
-0.20442407 -0.7321906 -0.3025368 -0.42603981 -0.604863 -0.44359228 -0.34856796 -0.22529605
-0.42649093 -0.0053618615 -0.40144834 -0.47980353 -0.23458016 -0.5299904 -0.8365583 -0.8219958
-0.02738739 -0.38031518 -0.5364285 -0.3157492 -0.6061045 -0.18693103 -0.37184116 -0.30182984
-0.63427895 -0.6772376 -0.64821464 -0.50947475 -0.3260281 -0.87178403 -0.5475509 -0.6601927
-0.26030028 -0.31737345 -0.5286149 -0.6361205 -0.068346165 -0.35062227 -0.46056232 -0.23228177
-0.8655466 -0.6365515 -0.27808186 -0.4780961 -0.72561574 -0.5385641 -0.24185468 -0.21962091
-0.6828695 -0.3470779 -0.76926464 -0.69110376 -0.50124013 -0.514051 -0.5009657 -0.46213666
-0.59602386 -0.60035574 -0.5559222 -0.71087396 -0.47346488 -1.0718571 -0.4529518 -0.49598598
-0.9373167 -0.57104963 -0.39543277 -0.60729355 -0.0718085 -0.54602087 -0.30604368 -0.60553896
-0.4746787 -0.6709483 -0.5350467 -0.39107162 -0.7577233 -0.57752407 -0.69153774 -0.46918342
-0.7961415 -0.58506805 -0.22486022 -0.6917565 -0.43256503 -0.7755895 -0.79890835 -0.54738224
-0.84944785 -0.48687288 -0.76489455 -0.8989935 -0.47183788 -0.38987282 -0.31792682 -0.8082381
-1.0087731 -0.15104526 -0.3148762 -0.68676275 -0.71529406 -0.27302057 -0.34103605 -0.20536432
-0.34486204 -0.6677231 -0.8665454 -0.43648204 -0.52417153 0.0036722815 -0.44764587 -0.3260643
-0.52083784 -0.42959306 -0.14994292 -0.3671414 -0.5326713 -0.3419407 -0.32423127 -0.40425006
-0.30035397 -0.53182346 -0.6029718 -0.33535054 -0.54367834 -0.19257042 -0.698024 -0.75660866
0.019779243 -0.38788435 -0.38994706 -0.3965417 -0.28624797 -0.53421426 -0.29961082 -0.44582406
-0.37423983 -0.53017485 -0.78423756 -0.59682155 -0.15467583 -0.51606363 -0.9136549 -0.26125765
-0.18147865 -0.32370684 -0.50138485 -0.3627995 -0.6607531 -0.5135016 -0.045513112 -0.5412544
-0.45335546 -0.57514536 -0.20356876 -0.16569512 -0.5456044 -0.78990674 -0.5591576 -0.11467561
00000000: 8660 21bf 98ed f6be efdc f3be 7ca0 15bf
00000010: bfda 99be 641e 4dbf 354d 3dbf 36bc 20bf
00000020: b11f 47bf 6585 08bf d36c 97be 0fdf e3be
00000030: 598a 3abd 8207 9bbe b130 c6be 6897 2bbf
00000040: fdf9 b7be fc07 24bf 583b 4cbe f161 d4bd
00000050: c418 26bf af38 5fbf e122 93be e53f 1fbe
00000060: a1e6 1ebf 9634 28bf 0a84 83bf 5c0e 983e
00000070: 6ec9 11bf 5d2b 1dbf c21f b8be bfa5 8ebe
00000080: 14c0 313e a797 20bf 6a7b a7bd ef81 5b3d
00000090: 9160 5cbf 1c47 07bf 61e2 96bc ef7a 40be
000000a0: ec56 75be b1b7 ddbe bb2c 5abe ad17 ccbd
000000b0: cde2 8ebe 4c04 bdbe b49f 1bbf 8ebe b5be
000000c0: 570d 0fbe e5f6 edbe 3260 12bf de38 c7be
000000d0: 884c ecbe 0c4b 06bf 4f41 17bf 44cb a3bd
000000e0: 368a f9bd fec4 95be 453f 10bf d5f5 1bbf
000000f0: 26c2 c3be abf5 b7bf 8d47 8abe 9dbd 4cbf
00000100: 0bc3 25be 9ae4 02bf fbfa 03bf 47d2 1fbf
00000110: 7df1 25be 1745 a9be e8a2 57bf dcec 24bf
00000120: 71b0 04bf bfd6 98be e311 c8be aa9b f2be
00000130: 7208 edbe b437 49bf ff04 23bf f34c b2be
00000140: 8d51 8dbe b444 16bf ba99 3fbf 6a22 d6be
00000150: 3208 f2be da02 dabe 640a 5dbf c7b8 0ebf
00000160: 7e4d 22bf af1e 783d b993 2cbf fe5c 09bf
00000170: a091 09bf 9a04 23bf b26d 03bf 3fb7 46bf
00000180: 8b54 51be d870 3bbf 1ae6 9abe e421 dabe
00000190: 4dd8 1abf 871e e3be 8077 b2be 02b4 66be
000001a0: 055d dabe 8eb2 afbb a38a cdbe cfa8 f5be
000001b0: c835 70be 73ad 07bf af28 56bf 516e 52bf
000001c0: 855b e0bc acb8 c2be 6153 09bf e1a9 a1be
000001d0: aa29 1bbf d96a 3fbe f761 bebe 7189 9abe
000001e0: 1b60 22bf 715f 2dbf 65f1 25bf f06c 02bf
000001f0: 28ed a6be 3d2d 5fbf 4c2c 0cbf 6402 29bf
00000200: 1446 85be c67e a2be 4e53 07bf cbd8 22bf
00000210: 13f9 8bbd c384 b3be d3ce ebbe 46db 6dbe
00000220: 7694 5dbf 0af5 22bf bf60 8ebe 03c9 f4be
00000230: f4c1 39bf 56df 09bf c1a8 77be 4ee4 60be
00000240: 89d0 2ebf 32b4 b1be 87ee 44bf 2dec 30bf
00000250: 4651 00bf d998 03bf 4a3f 00bf 2d9d ecbe
00000260: 0595 18bf eab0 19bf eb50 0ebf d6fb 35bf
00000270: fd69 f2be 9d32 89bf 4ce9 e7be e0f1 fdbe
00000280: fdf3 6fbf 4f30 12bf 2a76 cabe 9777 1bbf
00000290: 5610 93bd 06c8 0bbf c2b1 9cbe 9a04 1bbf
000002a0: 1609 f3be 45c3 2bbf d2f8 08bf 8a3a c8be
000002b0: 27fa 41bf 9ed8 13bf 9e08 31bf cf38 f0be
000002c0: eecf 4bbf 05c7 15bf c241 66be f416 31bf
000002d0: 2a79 ddbe 098d 46bf 4285 4cbf 3e21 0cbf
000002e0: 6a75 59bf 6747 f9be 21d0 43bf 7024 66bf
000002f0: bc94 f1be 699d c7be 4ec7 a2be b1e8 4ebf
00000300: 7a1f 81bf 9cab 1abe 7437 a1be afcf 2fbf
00000310: 831d 37bf 5ac9 8bbe 479c aebe 064b 52be
00000320: c291 b0be e7ef 2abf ebd5 5dbf 937a dfbe
00000330: 1b30 06bf a9aa 703b d731 e5be e6f1 a6be
00000340: a155 05bf 9ff3 dbbe a38a 19be f5f9 bbbe
00000350: 255d 08bf da12 afbe a401 a6be ddf9 cebe
00000360: ffc7 99be 9525 08bf 5c5c 1abf 11b3 abbe
00000370: 812e 0bbf 2e31 45be b3b1 32bf 1bb1 41bf
00000380: 1408 a23c c798 c6be 24a7 c7be 8407 cbbe
00000390: 188f 92be 44c2 08bf 9766 99be 0d43 e4be
000003a0: 5d9c bfbe 8ab9 07bf cbc3 48bf 4cc9 18bf
000003b0: 5763 1ebe bf1c 04bf 4ae5 69bf 90c3 85be
000003c0: 8ad5 39be e7bc a5be c25a 00bf dbc0 b9be
000003d0: 1d27 29bf d774 03bf f56b 3abd a68f 0abf
000003e0: 351e e8be ba3c 13bf 5474 50be fbab 29be
000003f0: bbac 0bbf 5437 4abf f424 0fbf 0cdb eabd

fc2.weight f4 [300, 404]
-0.27589756 0.58785087 -0.48919022 0.5723877 0.6778725 0.21999666 -0.027972057 -0.22528066
0.056324944 -0.45346853 0.87842166 -0.31001842 -0.2908817 0.30917895 -0.09057683 0.048328944
0.119886376 0.40186098 0.17260098 -0.5566719 0.003944623 -0.8239531 0.11451035 0.029425697
-0.26465335 0.02634846 0.04059531 0.07959059 0.35562596 0.17127597 -0.15914051 -0.38972738
-0.5266386 -0.89197206 -0.016209647 -1.9382256 -0.3784151 -0.06343441 0.16963871 -0.30189478
-0.17909643 0.16845213 0.29245552 0.3048855 -0.6189776 0.28174195 0.08896201 0.3483149
0.04604465 -0.62533444 0.2372907 -0.11148378 0.2859 -0.00602756 -0.27054226 -0.2419197
-0.049316406 -0.31368282 0.19327396 0.08851698 -0.070679165 0.66168374 -0.4185796 -0.5849064
-0.23249687 0.26682743 0.18210593 -0.30808198 0.04820033 0.23260157 -0.30030382 -0.27589133
-0.28368124 -0.017077198 0.06644147 -0.1281461 0.08925614 0.27305648 0.26319963 -0.195121
-0.059856724 0.1545284 -0.038899623 0.19843079 -0.029239316 -0.35963383 -0.10751778 -0.20633365
0.0260335 -1.0381178 -0.45886755 0.047838062 -0.26072147 -0.44157448 -0.1988963 0.3024238
-0.94079983 -0.8992476 -0.0422501 0.10341321 -0.23822922 0.2523864 -0.38672605 -1.1131229
-0.30708107 0.13153806 -0.29856148 0.012198683 0.114641644 0.38046765 -0.61198 0.28445032
0.36870885 -0.08084287 0.34348392 -0.27932024 -0.022509195 -0.6035712 -0.15892166 0.31551886
-0.5544487 0.043789726 -0.024714721 -0.018686624 -0.13521697 -0.24770285 -0.044175003 -0.26797047
0.48337835 -0.027926063 -0.2798958 -0.02572052 -0.40671465 -0.16102491 0.12335351 -0.28389728
-0.6105646 0.048421934 -0.18670167 0.17994131 -0.44046277 -0.14000535 -0.71245176 -0.30451542
-0.6239224 -0.15952697 -0.40097874 0.6004885 -0.1008924 -0.10743678 -0.20464808 0.12544592
0.37960526 -0.321758 0.2974808 -0.32394886 0.43212023 -0.15247887 -0.22217324 -0.04062943
-0.08254979 0.058868144 -0.0482587 0.22972082 0.3096174 -0.5628334 0.10127958 -0.29199973
0.0982626 -0.14075018 0.21790852 0.18878606 0.10884873 -0.26609784 -0.18564698 0.3760651
-0.39540577 0.3406919 0.08052083 -0.22314672 -0.7378817 0.21714312 -0.10892006 -0.23751009
0.32965964 -0.12902719 -0.33159876 -0.1331408 -0.19043699 -0.0224827 -0.005713396 0.3258044
-0.08629485 -0.32798174 0.23528099 -0.17669985 -0.47992337 -0.1205715 -0.42950508 -0.5474655
-0.13782261 -0.32751277 -0.16012517 0.37230006 -0.36359984 0.08571031 0.21232033 -0.07519119
-0.02206719 -0.039355393 -0.090404585 0.25850302 -0.06478713 0.15434489 -0.19733028 -0.26866642
-0.058523145 0.33762628 -0.37930325 0.22153719 0.15497734 0.17012955 0.014380877 -0.28223366
0.17091727 -0.24470574 0.122526266 -0.44774687 0.21762517 0.05775392 0.010905273 1.0833775
0.49093023 -0.15270224 -0.52632266 -0.41928217 -0.24365832 0.19098738 0.2478702 0.21658523
-0.32556465 -0.12512755 0.033053398 -0.08838216 -0.90484345 -0.3743639 0.24941355 0.13700831
-0.29701665 -0.097040564 -0.40707174 -0.06550243 0.14863911 0.064449005 -0.48317677 -0.295693
00000000: 7242 8dbe 657d 163f 2477 fabe 0088 123f
00000010: 0d89 2d3f ce46 613e a825 e5bc f9af 66be
00000020: fcb4 663d 072d e8be 3ee0 603f bcba 9ebe
00000030: 72ee 94be b44c 9e3e 5880 b9bd 92f4 453d
00000040: fd86 f53d b9c0 cd3e 50be 303e 0d82 0ebf
00000050: e541 813b 97ee 52bf 6784 ea3d 290e f13c
00000060: a580 87be bad8 d73c 4547 263d 6400 a33d
00000070: 9b14 b63e f862 2f3e bbf5 22be 598a c7be
00000080: cad1 06bf 4858 64bf 18ca 84bc c717 f8bf
00000090: a0bf c1be e6e9 81bd c5b5 2d3e f491 9abe
000000a0: 0e65 37be b77e 2c3e bbbc 953e f419 9c3e
000000b0: 5175 1ebf 7b40 903e b731 b63d 5556 b23e
000000c0: 5199 3c3d eb15 20bf 55fc 723e 9c51 e4bd
000000d0: 7c61 923e d782 c5bb 8484 8abe ccb9 77be
000000e0: 0000 4abd 099b a0be 9ce9 453e 6448 b53d
000000f0: 3dc0 90bd 1b64 293f 1150 d6be 6dbc 15bf
00000100: a913 6ebe 9b9d 883e fa79 3a3e ecbc 9dbe
00000110: b66d 453d 1b2f 6e3e 6cc1 99be a141 8dbe
00000120: ab3e 91be 7be5 8bbc 7712 883d bb38 03be
00000130: eccb b63d 0fce 8b3e 1ac2 863e cdcd 47be
00000140: 532c 75bd b13c 1e3e 3655 1fbd 7131 4b3e
00000150: 4a87 efbc ed21 b8be 4832 dcbd 2149 53be
00000160: 3544 d53c 0be1 84bf b0f0 eabe d8f1 433d
00000170: 497d 85be 0d16 e2be 79ab 4bbe 4bd7 9a3e
00000180: 42d8 70bf 1735 66bf 710e 2dbd 4eca d33d
00000190: 5cf2 73be ca38 813e f500 c6be d07a 8ebf
000001a0: bb39 9dbe eab1 063e 0ddd 98be fcdc 473c
000001b0: 3dc9 ea3d a8cc c23e b9aa 1cbf 79a3 913e
000001c0: 68c7 bc3e f290 a5bd 20dd af3e 1003 8fbe
000001d0: 3465 b8bc a483 1abf 5cbc 22be b08b a13e
000001e0: 5af0 0dbf db5c 333d 8776 cabc b114 99bc
000001f0: 5176 0abe d1a5 7dbe d9f0 34bd 6d33 89be
00000200: 5e7d f73e 33c5 e4bc 814e 8fbe d7b3 d2bc
00000210: e73c d0be b7e3 24be c4a0 fc3d fc5a 91be
00000220: f64d 1cbf 1456 463d b92e 3fbe 8942 383e
00000230: 5684 e1be 905d 0fbe 3d63 36bf 72e9 9bbe
00000240: 61b9 1fbf 0a5b 23be 164d cdbe 9db9 193f
00000250: ada0 cebd d107 dcbd 448f 51be e574 003e
00000260: 9f5b c23e 77bd a4be 674f 983e a0dc a5be
00000270: dd3e dd3e 6c23 1cbe 6281 63be 0c6b 26bd
00000280: dd0f a9bd b91f 713d eaaa 45bd ef3b 6b3e
00000290: 2c86 9e3e da15 10bf ab6b cf3d fd80 95be
000002a0: e73d c93d d120 10be 6923 5f3e 2251 413e
000002b0: 15ec de3d fa3d 88be 3e1a 3ebe 9b8b c03e
000002c0: a072 cabe 2b6f ae3e 1be8 a43d 9380 64be
000002d0: d1e5 3cbf c45a 5e3e 7b11 dfbd d835 73be
000002e0: 26c9 a83e b41f 04be 50c7 a9be 1056 08be
000002f0: ea01 43be a42d b8bc 7037 bbbb d6cf a63e
00000300: 5bbb b0bd 39ed a7be 80ed 703e cef0 34be
00000310: 84b8 f5be 31ee f6bd 17e8 dbbe b326 0cbf
00000320: 5f21 0dbe c1af a7be daf7 23be 1d9e be3e
00000330: c229 babe e388 af3d 806a 593e d7fd 99bd
00000340: 40c6 b4bc 1f33 21bd 0a26 b9bd 825a 843e
00000350: 1daf 84bd 960c 1e3e f310 4abe a58e 89be
00000360: f7b5 6fbd 5add ac3e 0934 c2be a5da 623e
00000370: 61b2 1e3e 7136 2e3e c59d 6b3c ee80 90be
00000380: f004 2f3e 2494 7abe 0def fa3d 143f e5be
00000390: 22d9 5e3e 608f 6c3d 08ac 323c 1dac 8a3f
000003a0: 355b fb3e fa5d 1cbe 15bd 06bf 27ac d6be
000003b0: 9181 79be 3292 433e b0d1 7d3e 85c8 5d3e
000003c0: 69b0 a6be 7021 00be 0063 073d b501 b5bd
000003d0: d2a3 67bf a0ac bfbe 4466 7f3e e84b 0c3e
000003e0: 9112 98be 34bd c6bd b56b d0be 2326 86bd
000003f0: da34 183e d7fd 833d f262 f7be 1365 97be

fc2.bias f4 [300]
-0.02033427 -0.2201149 -0.6325079 -0.18210591 -0.3548137 -0.15907753 -0.2449568 -0.8386426
-0.10251592 -0.08548899 -0.025180517 0.42388952 0.5253697 0.010079934 -0.07098642 -0.31876078
0.6859461 -0.065611675 -0.5568846 0.17097189 0.19793783 -0.08780709 -0.16190208 -0.45966032
-0.25350058 -0.6663354 0.37691435 0.16264562 -0.11010374 -0.098148964 -0.66821563 -0.09567861
-0.51535106 -0.5785722 0.53368175 -0.62248045 -0.39995396 -0.034020957 -0.13591668 0.050986856
-0.20325951 0.12869234 -0.049735013 -0.43350208 0.0016848329 -0.6195715 0.22070695 -0.052800473
0.04181864 0.06397724 -0.40554538 -0.2520604 0.049866103 -0.021065172 -0.24348938 -0.53257495
-0.12775075 -0.32555258 -0.06728809 0.46751434 -0.013020576 0.2574608 -0.08105718 -0.16239691
-0.027747931 -0.4538768 0.52490956 -0.6505896 -0.08435993 -0.2797804 -0.45848626 -0.06190356
-0.3541061 0.43857962 -0.09178597 -0.21530168 -0.57625043 -0.19186269 -0.066037595 -0.5830082
-0.61834055 -0.4307082 0.4066246 0.2974276 -0.07166931 -0.3792724 -0.28663647 0.35956135
0.39158404 -0.25572222 -0.050024126 0.7294719 -0.088543035 -0.2621581 -0.29671744 -1.0075269
-0.028166447 0.34168443 -0.10664591 -0.044461735 -0.04862185 0.19384481 0.3755105 -0.47989452
0.89251083 0.09720181 -0.44926727 -0.06977978 -0.6477138 -0.49840665 -0.012015434 0.04396542
0.29858512 -0.13829914 -0.036845047 0.6980545 -0.084298015 -0.38859552 -0.30552799 0.12113985
-0.14632855 -0.029018058 0.03140535 -0.086577415 0.07956944 -0.08044382 -0.15525627 0.00535526
-0.0012017213 0.49643156 0.16839652 0.07144125 0.05529615 0.026305052 -0.44400278 -0.19058381
-0.606327 -0.38837287 -0.59607565 -0.21576895 -0.0125966845 0.49917513 -0.44526243 -0.4723327
0.36318427 -0.6822556 -0.04610789 0.39790946 -0.51720923 -0.061081342 -0.12330637 -0.16888422
-0.09003498 -0.043310966 -0.5553977 0.38567963 0.049516432 -0.3001435 -0.6602145 -0.15919979
-0.34121823 -0.036759447 0.10721491 -0.09190246 0.02294069 0.87376666 -0.18510196 0.0015804316
-0.125591 0.39502352 0.041109968 0.41461742 -0.078893915 -0.14654101 -0.3725564 -0.38632625
-0.1559874 -0.38320437 0.30131152 -0.06539725 0.19397072 -0.2505083 -0.4728094 -0.30088463
-0.18544737 -0.48838848 0.40530348 -0.07828357 -0.20521298 -0.054429762 0.15425041 -0.29689252
-0.02202141 -0.4717954 -0.01963918 -0.16995229 -0.38129514 -0.06477896 -0.09407375 -0.33608603
0.1300232 -0.05524798 -0.32243514 -0.2229539 0.0014273631 -0.24925013 0.07893523 0.05158039
0.7081567 -0.2888209 -0.135357 -0.3163344 -0.037723385 -0.048185226 -0.82212037 -0.12416335
-0.31797126 -0.47609103 -0.081817165 0.31340504 -0.066418625 -0.2539762 0.52270025 -0.26562053
-0.5324515 -0.40232822 -0.11465867 -0.46639186 -0.07926981 0.00039864416 0.20817444 0.16693506
-0.40345377 -0.03155839 0.923442 -0.18047029 -0.16501905 -0.61656654 -0.23798747 -0.03451084
-0.07793993 0.22657256 -0.58530384 -0.16203246 -0.06539963 -0.5378841 -0.2673557 0.36132172
-0.17737083 -0.16376413 0.0072305775 -0.17914113 0.031792004 -0.030370284 -0.12617168 -0.2991622
00000000: 0e94 a6bc cd65 61be 0aec 21bf f979 3abe
00000010: 24aa b5be 38e5 22be f5d5 7abe 48b1 56bf
00000020: def3 d1bd da14 afbd 5f47 cebc 0c08 d93e
00000030: a17e 063f 4f26 253c 5461 91bd 9d34 a3be
00000040: 2a9a 2f3f 6a5f 86bd fd8f 0ebf 4113 2f3e
00000050: 37b0 4a3e 34d4 b3bd a9c9 25be 9958 ebbe
00000060: d4ca 81be f594 2abf ebfa c03e 938c 263e
00000070: 127e e1bd 5302 c9bd 2e10 2bbf 26f3 c3bd
00000080: 0cee 03bf 4f1d 14bf 5e9f 083f e15a 1fbf
00000090: c4c6 ccbe 8f59 0bbd be2d 0bbe 98d7 503d
000000a0: 4323 50be edc7 033e f1b6 4bbd fcf3 ddbe
000000b0: 9cd5 dc3a 3d9c 1ebf 0101 623e 4f45 58bd
000000c0: 064a 2b3d 8006 833d a5a3 cfbe 100e 81be
000000d0: 6640 4c3d de90 acbc 4855 79be d556 08bf
000000e0: 18d1 02be d4ae a6be 57ce 89bd 0a5e ef3e
000000f0: 4154 55bc e7d1 833e 4f01 a6bd 604b 26be
00000100: a14f e3bc 8a62 e8be 7960 063f 0a8d 26bf
00000110: e6c4 acbd 603f 8fbe b6be eabe 968e 7dbd
00000120: 654d b5be 828d e03e 48fa bbbd 0b78 5cbe
00000130: 2685 13bf a777 44be b83e 87bd 0740 15bf
00000140: 914b 1ebf c985 dcbe 1931 d03e 6e48 983e
00000150: 5cc7 92bd fe2f c2be 04c2 92be 6d18 b83e
00000160: b47d c83e 06ee 82be 19e6 4cbd acbe 3a3f
00000170: 0d56 b5bd 9639 86be 59eb 97be a4f6 80bf
00000180: 52bd e6bc 43f1 ae3e 2c69 dabd 821d 36bd
00000190: b427 47bd 417f 463e ea42 c03e bcb4 f5be
000001a0: 977b 643f be11 c73d 5c06 e6be b4e8 8ebd
000001b0: 92d0 25bf 282f ffbe 62dc 44bc 1615 343d
000001c0: 26e0 983e 4a9e 0dbe d5ea 16bd b3b3 323f
000001d0: 70a4 acbd fef5 c6be 2a6e 9cbe 2b18 f83d
000001e0: 27d7 15be 47b7 edbc e5a2 003d 804f b1bd
000001f0: 4df5 a23d bbbf a4bd 80fb 1ebe 2d7b af3b
00000200: 1383 9dba 472c fe3e 2370 2c3e ca4f 923d
00000210: 377e 623d b17d d73c 5554 e3be 6728 43be
00000220: 3f38 1bbf cfd8 c6be 6a98 18bf 89f2 5cbe
00000230: 5362 4ebc e293 ff3e 70f9 e3be 97d5 f1be
00000240: 4af3 b93e 4ea8 2ebf a0db 3cbd caba cb3e
00000250: d367 04bf 6e30 7abd 0d88 fcbd fcef 2cbe
00000260: 4264 b8bd d766 31bd 8b2e 0ebf cd77 c53e
00000270: bed1 4a3d 69ac 99be d103 29bf 4505 23be
00000280: 28b4 aebe 1391 16bd 7e93 db3d 5b37 bcbd
00000290: 1dee bb3c 2caf 5f3f 5e8b 3dbe 7c26 cf3a
000002a0: ed9a 00be 8640 ca3e ed62 283d bc48 d43e
000002b0: 2293 a1bd d90e 16be b6bf bebe 8ecc c5be
000002c0: 29bb 1fbe 5d33 c4be 8145 9a3e feee 85bd
000002d0: 43a0 463e a042 80be 1314 f2be 8d0d 9abe
000002e0: eae5 3dbe 0e0e fabe f083 cf3e 2353 a0bd
000002f0: 5a23 52be bef1 5ebd d2f3 1d3e 4c02 98be
00000300: 3e66 b4bc 2b8f f1be 58e2 a0bc f907 2ebe
00000310: 1e39 c3be d5aa 84bd bda9 c0bd 7813 acbe
00000320: cd24 053e b54b 62bd 3816 a5be 074e 64be
00000330: 5c16 bb3a 6d3b 7fbe cba8 a13d f645 533d
00000340: c249 353f 55e0 93be 079b 0abe 95f6 a1be
00000350: d683 1abd df5d 45bd 7b76 52bf 5b49 febd
00000360: 21cd a2be 34c2 f3be c28f a7bd a076 a03e
00000370: 7d06 88bd 2b09 82be afcf 053f 6aff 87be
00000380: be4e 08bf f7fd cdbe 2ad2 eabd eaca eebe
00000390: 3658 a2bd 1d01 d139 ae2b 553e 06f1 2a3e
000003a0: 7e91 cebe 5f43 01bd b266 6c3f 34cd 38be
000003b0: c1fa 28be 4ed7 1dbf fdb2 73be 3d5b 0dbd
000003c0: f89e 9fbd a302 683e 79d6 15bf d6eb 25be
000003d0: 3ef0 85bd c6b2 09bf d9e2 88be 29ff b83e
000003e0: b3a0 35be c9b1 27be 7bee ec3b c670 37be
000003f0: 5538 023d 1acb f8bc 2633 01be ca2b 99be

fc3.weight f4 [200, 300]
-0.11776737 0.118094474 -0.23268713 -0.37404528 -0.038620446 0.15592566 0.41411105 -0.14708175
0.14954367 -0.008984995 0.01620387 -0.124886304 -0.4565686 0.0140907215 0.01394665 -0.8332289
-0.58628994 -0.07465603 0.018917551 -0.015223458 0.37238583 0.033849005 -0.20946622 -0.38840306
-0.2107005 -0.11264291 0.43286282 -0.17233525 -0.41124976 0.46493694 -0.082276486 -0.040526662
-0.25177336 0.3950831 0.47563663 0.32468265 -0.122832224 2.7579934e-05 -0.31463516 0.0861586
-0.061257996 0.1641803 0.093293965 -0.046542637 -0.48302063 -0.1008715 -0.2959286 -0.04034763
0.31838307 -0.040830553 0.018960223 0.29307368 -0.0023955002 0.07589249 0.43451515 -0.049020797
0.11363427 0.0011595803 -0.09841097 0.4378594 -0.22096711 -0.6424801 0.072333954 0.2005857
-0.035143487 0.46408737 -0.7059894 0.112257026 0.080788076 0.020271128 -0.45521277 -0.04343225
0.13480821 -0.65980947 -0.17310019 0.1820204 0.26635265 -0.14955907 -0.61510223 -0.15141156
0.36890334 -0.37135077 -0.22004579 0.121828824 -0.0018165153 0.14801222 -0.35888466 0.04659693
-0.27259767 0.18065555 0.062362112 0.06100146 -0.25754532 -0.37879872 0.039352152 -0.22046292
-0.76999307 -0.6386179 -0.47190022 -0.045658592 -0.037483905 -0.42102703 -0.12680677 -0.15803714
-0.22706611 -0.5731129 -0.33714846 -0.056905996 -0.20463152 -0.1579003 0.05789985 -0.4912106
-0.091413625 -0.32832766 -0.03886748 -0.22467522 0.008706107 0.10353911 0.021343565 0.070796244
0.2647045 0.013955491 0.0666988 0.1357941 -0.19157705 -0.2289716 0.058934897 0.09390437
-0.31034315 -0.60199356 0.09684768 -0.2531079 -0.12085129 0.10655872 -0.022212708 -0.07468342
0.074118614 -0.37950742 0.0032268506 -0.20443551 -0.25396544 0.07132111 0.044802237 -0.26480576
-0.13757525 0.022598332 -1.2519501 -0.06945311 -0.2724225 -0.050491348 0.020068806 0.08352472
-0.10573969 -0.004246201 -0.05423004 -0.6209761 -0.07781405 -0.3983661 0.0048100324 -0.05783004
0.4373605 -0.33225882 -0.16841401 -0.021298911 -0.01694888 -0.27386448 -0.6574248 -0.121439144
0.08113385 0.028013213 -0.61541337 0.0721926 -0.15327495 0.34606263 0.33822167 0.22182015
0.016846124 -0.10558649 0.20471105 -0.04124484 0.3344831 0.25953186 -0.57361764 -0.52614987
-0.13171506 0.044720348 0.18573894 -0.05579424 0.09432336 0.00030197235 -0.021450894 -0.30965585
0.07220444 0.024266727 -0.11097934 -0.26383582 0.04717311 0.053086665 -0.03840456 -0.14235027
-0.04465952 0.028575053 -0.093359634 -0.2512172 -0.19039525 -0.6571152 0.2502293 -0.15434662
-0.24695049 0.07849426 -0.036710408 -0.27853605 0.03840153 -0.02761897 -0.35120645 -0.063882284
-0.06534127 0.13040747 -0.0384808 -0.09499662 -0.063664064 0.016365439 0.055065125 -0.38020343
-0.16667923 -0.7454617 0.28175744 -0.007399425 -0.030868573 0.01999848 0.19362472 -0.27570865
-0.395623 -0.26518553 0.20926142 -0.22655992 -0.14396232 -0.19752847 -0.35145807 -0.38398042
-0.06350372 -0.41364732 0.052580528 -0.3840835 0.033489123 -0.6398338 -0.18266895 -0.45931408
-0.31848282 0.2767403 -0.3259131 0.1836088 -0.06813952 -0.0057674553 0.018121827 -0.3013664
00000000: 0530 f1bd 84db f13d 8945 6ebe dd82 bfbe
00000010: 7930 1ebd faaa 1f3e 5d06 d43e 999c 16be
00000020: fa21 193e cd35 13bc fabd 843c 64c4 ffbd
00000030: 5cc3 e9be c5dc 663c 7d80 643c 7d4e 55bf
00000040: 1917 16bf 43e5 98bd fbf8 9a3c d06b 79bc
00000050: 5ba9 be3e 41a5 0a3d 507e 56be c4dc c6be
00000060: dfc1 57be 53b1 e6bd 32a0 dd3e a778 30be
00000070: 548f d2be 370c ee3e 9380 a8bd 49ff 25bd
00000080: 70e8 80be 5548 ca3e a586 f33e ce3c a63e
00000090: 768f fbbd 755b e737 dc17 a1be ec73 b03d
000000a0: aae9 7abd e11e 283e e810 bf3d 7ea3 3ebd
000000b0: 7b4e f7be b895 cebd f483 97be 8e43 25bd
000000c0: 1b03 a33e f03d 27bd 7852 9b3c c10d 963e
000000d0: d3fd 1cbb 866d 9b3d c578 de3e 08ca 48bd
000000e0: 16b9 e83d 0ffd 973a b18b c9bd 1b2f e03e
000000f0: 3445 62be 9379 24bf d323 943d 5666 4d3e
00000100: 9ef2 0fbd dc9c ed3e b9bb 34bf 03e7 e53d
00000110: 3874 a53d a30f a63c a611 e9be 04e6 31bd
00000120: 2a0b 0a3e 46e9 28bf 2d41 31be 8e63 3a3e
00000130: 605f 883e 0326 19be 5777 1dbf a20b 1bbe
00000140: e6e0 bc3e b021 bebe af53 61be 6481 f93d
00000150: 2418 eeba 8490 173e bbbf b7be 6cdc 3e3d
00000160: ec91 8bbe c5fd 383e 6a6f 7f3d abdc 793d
00000170: fbdc 83be e8f1 c1be b92f 213d 08c1 61be
00000180: 441e 45bf 767c 23bf e89c f1be 8104 3bbd
00000190: b988 19bd db90 d7be a2d9 01be 7dd4 21be
000001a0: 0584 68be 87b7 12bf b99e acbe 4316 69bd
000001b0: ed8a 51be 9eb0 21be 6528 6d3d f57f fbbe
000001c0: 1137 bbbd 901a a8be 8233 1fbd 4311 66be
000001d0: 0fa4 0e3c 500c d43d b3d8 ae3c 9ffd 903d
000001e0: 5987 873e 92a5 643c 6199 883d 9c0d 0b3e
000001f0: c62c 44be 8877 6abe b865 713d ef50 c03d
00000200: 4ce5 9ebe 401c 1abf 1458 c63d 5c97 81be
00000210: e280 f7bd 753b da3d 6df7 b5bc 9ff3 98bd
00000220: 80cb 973d cc4e c2be 9279 533b 8b57 51be
00000230: c207 82be cd10 923d 8d82 373d 9f94 87be
00000240: 87e0 0cbe 2320 b93c e73f a0bf 6f3d 8ebd
00000250: f67a 8bbe 04d0 4ebd 5667 a43c 020f ab3d
00000260: 0d8e d8bd b723 8bbb 5220 5ebd 4af8 1ebf
00000270: f95c 9fbd a4f6 cbbe 7a9d 9d3b 31df 6cbd
00000280: b7ed df3e d41d aabe b974 2cbe 0e7b aebc
00000290: 61d8 8abc f737 8cbe fe4c 28bf 16b5 f8bd
000002a0: 8129 a63d f77b e53c bb8b 1dbf b7d9 933d
000002b0: 1cf4 1cbe 1f2f b13e 642b ad3e d224 633e
000002c0: e200 8a3c bb3d d8bd c69f 513e 59f0 28bd
000002d0: 5e41 ab3e 5ce1 843e 9bd8 12bf c2b1 06bf
000002e0: 50e0 06be af2c 373d 5932 3e3e 8088 64bd
000002f0: 9b2c c13d 0b52 9e39 c9b9 afbc 368b 9ebe
00000300: ecdf 933d 04cb c63c 2349 e3bd 7d15 87be
00000310: 9738 413d 6771 593d 1a4e 1dbd 45c4 11be
00000320: e7ec 36bd 3b16 ea3c 5633 bfbd 8a9f 80be
00000330: f9f6 42be b438 28bf 0e1e 803e 0a0d 1ebe
00000340: 97e0 7cbe 99c1 a03d a75d 16bd 479c 8ebe
00000350: ec4a 1d3d 2e41 e2bc 55d1 b3be b7d4 82bd
00000360: a5d1 85bd 8989 053e 0b9e 1dbd 978d c2bd
00000370: 4e62 82bd d010 863c f88b 613d 06aa c2be
00000380: f6ad 2abe 94d6 3ebf 8342 903e e076 f2bb
00000390: 17e0 fcbc dad3 a33c 8f45 463e af29 8dbe
000003a0: 198f cabe 66c6 87be a048 563e 53ff 67be
000003b0: dc6a 13be e744 4abe 50f2 b3be 1599 c4be
000003c0: 3d0e 82bd 95c9 d3be ae5e 573d 98a6 c4be
000003d0: e42b 093d 26cc 23bf 920d 3bbe 372b ebbe
000003e0: 2e10 a3be e8b0 8d3e 15de a6be f203 3c3e
000003f0: bc8c 8bbd ecfc bcbb 3a74 943c b24c 9abe

fc3.bias f4 [200]
-0.75146806 -0.468379 -0.14653417 0.0032815924 -0.18353547 -1.0831679 -0.81878304 0.4791019
-0.50658417 0.011703606 -0.04373566 0.29916015 -0.1571106 -0.7204078 -0.43086877 1.1735045
-0.7174001 -1.2523391 1.2353879 -0.16495566 -0.29159215 -0.6089389 -0.65362495 -0.3345065
0.24564576 -0.17679201 0.11946472 -0.41231817 -0.4672259 -0.570623 -0.3751512 -0.13563913
-0.42625397 0.32017526 -0.36934802 -0.6500762 -0.29008666 -0.34567636 -0.6537086 -0.352691
-0.76358265 0.18456405 0.5279902 -0.88748896 0.10296012 -0.35290247 0.21785179 0.120075606
0.95473063 -0.84109986 0.6041821 0.5723569 0.7167552 -0.7582268 -0.16644394 -0.17138469
0.00884654 -0.3410347 -1.0269198 -0.8007481 -0.16887735 -0.44890663 -0.30071917 -0.19445015
-0.40578324 0.43880764 0.96331286 -0.41636896 -0.6648827 -0.2568766 -0.7557418 -0.5476871
-0.104296334 -1.0104204 -0.20588169 0.5486121 -0.38222638 -0.5574582 -0.5331313 -0.43177056
-0.41715217 0.25136274 0.51044935 -0.17247714 -0.19074856 0.22374292 -0.44406724 -0.016020207
0.41432318 0.12358709 -0.6628714 -0.5140238 -0.43032122 0.46026126 -0.4628884 -0.096803814
0.40092322 1.1864382 0.36100867 -0.026756875 -0.039023984 -0.1827213 -0.99680775 -0.89502084
-0.27762312 -0.49249965 -0.34391668 -0.51651263 0.016949885 -0.17462184 0.07461194 -0.7876083
0.17131126 -0.1543344 -0.06678519 -0.7332554 0.32094622 -0.29440293 0.37417546 0.07867759
-0.34075415 -0.36427143 0.765042 -0.40995854 0.10542357 0.65778023 -0.65407246 -0.45569965
-0.26154998 0.22758943 0.4439998 -0.28398776 -0.37997958 -0.70643365 0.5081686 0.28510234
0.16047138 -0.7219626 0.04518088 -0.52294916 -0.11626497 -0.8754264 -0.52857924 0.13494956
-0.11319897 1.194547 -0.35373837 -0.359154 -0.244794 -0.30704844 -0.10698424 -0.5007807
-0.23133318 -0.70839083 -0.09042122 0.047714893 -0.4969127 -0.470035 -0.02909851 -0.28320464
-0.5644904 -0.2054664 -0.29455876 -0.2922917 -0.5382241 0.33843717 -0.3960029 -0.23223013
-0.011676237 0.003025321 0.5701953 -0.26786718 -0.2495278 -0.48690218 0.0016206 -0.70248795
0.4726623 0.34141782 0.7901813 0.54934394 -0.02087767 -0.2362245 -0.59190553 -0.434525
0.068228304 0.1567883 0.2870949 -0.19958128 0.19278882 1.2513688 -0.38756868 -0.01118697
1.150035 0.12964667 -0.022058928 0.89743066 -0.34248087 -0.392099 -0.5028149 -0.4174814
00000000: 3660 40bf 5fcf efbe 0e0d 16be fc0f 573b
00000010: b9f0 3bbe 3fa5 8abf c49b 51bf d84c f53e
00000020: 80af 01bf 7bc0 3f3c 2a24 33bd 852b 993e
00000030: 9ae1 20be a56c 38bf d59a dcbe 6535 963f
00000040: 88a7 37bf a64c a0bf 3121 9e3f 23ea 28be
00000050: 914b 95be 6be3 1bbf f753 27bf 7044 abbe
00000060: 908a 7b3e f708 35be eba9 f43d 5e1b d3be
00000070: 3c38 efbe 5914 12bf d113 c0be fce4 0abe
00000080: f63d dabe 03ee a33e 2f1b bdbe 656b 26bf
00000090: 3d86 94be 7efc b0be 7259 27bf ea93 b4be
000000a0: 277a 43bf 5cfe 3c3e 5e2a 073f 7a32 63bf
000000b0: c1dc d23d a2af b4be 8a14 5f3e 33ea f53d
000000c0: 3a69 743f 5252 57bf aeab 1a3f fb85 123f
000000d0: 457d 373f 271b 42bf 4870 2abe 787f 2fbe
000000e0: 14f1 103c 1a9c aebe 1c72 83bf d4fd 4cbf
000000f0: 2fee 2cbe 17d7 e5be ddf7 99be f11d 47be
00000100: d2c2 cfbe 65ab e03e ac9b 763f 502e d5be
00000110: c135 2abf 5485 83be 4b78 41bf 3935 0cbf
00000120: 5199 d5bd 7555 81bf a6d2 52be d871 0c3f
00000130: 2db3 c3be 95b5 0ebf 4b7b 08bf 0811 ddbe
00000140: f894 d5be 9eb2 803e cfac 023f d99d 30be
00000150: 9753 43be dd1c 653e c85c e3be cf3c 83bc
00000160: 2b22 d43e 3a1b fd3d f1b1 29bf 1097 03bf
00000170: 1053 dcbe 5da7 eb3e b5ff ecbe 1441 c6bd
00000180: cf45 cd3e 35dd 973f 21d6 b83e 3c31 dbbc
00000190: 9dd7 1fbd 4b1b 3bbe cb2e 7fbf 1620 65bf
000001a0: 9e24 8ebe ea28 fcbe d915 b0be 2c3a 04bf
000001b0: 7cda 8a3c 11d0 32be 25ce 983d b3a0 49bf
000001c0: 386c 2f3e d609 1ebe acc6 88bd a0b6 3bbf
000001d0: 1053 a43e fbbb 96be ed93 bf3e b721 a13d
000001e0: 5477 aebe c981 babe cbd9 433f 16e6 d1be
000001f0: 50e8 d73d 4964 283f 4b71 27bf 7751 e9be
00000200: e1e9 85be 340d 693e f153 e33e d866 91be
00000210: af8c c2be d6d8 34bf 5617 023f eff8 913e
00000220: 9c52 243e 8ad2 38bf 960f 393d ffdf 05bf
00000230: 541c eebd f21b 60bf f850 07bf 3830 0a3e
00000240: ddd4 e7bd ebe6 983f 321d b5be 08e3 b7be
00000250: 47ab 7abe 7435 9dbe 8e1a dbbd 2a33 00bf
00000260: 9be2 6cbe 1a59 35bf c32e b9bd b170 433d
00000270: 576b febe 6da8 f0be 0060 eebc 3300 91be
00000280: 7182 10bf c965 52be 68d0 96be 42a7 95be
00000290: 0ec9 09bf a347 ad3e e4c0 cabe bccd 6dbe
000002a0: b04d 3fbc 7744 463b 52f8 113f e325 89be
000002b0: 3784 7fbe 3e4b f9be 506a d43a 40d6 33bf
000002c0: cb00 f23e 51ce ae3e 5249 4a3f cea1 0c3f
000002d0: a607 abbc d6e4 71be 1f87 17bf 107a debe
000002e0: 48bb 8b3d 1d8d 203e 1afe 923e 095f 4cbe
000002f0: 6f6a 453e da2c a03f 676f c6be 8e49 37bc
00000300: 5934 933f 19c2 043e edb4 b4bc 04be 653f
00000310: a759 afbe 33c1 c8be 7ab8 00bf 1fc0 d5be

fc4.weight f4 [100, 200]
-0.41864505 -0.04294895 -0.019964099 0.15746088 0.23419206 -0.24465899 0.043933827 -0.17737342
0.05637724 0.18031682 -0.12979905 -0.39731774 -0.09291502 0.08949931 -0.4922563 -0.31224507
-0.4577075 -0.47284278 -0.14724301 0.14840846 -0.09831796 0.0074384254 -0.33429047 -0.21591264
-0.10138498 0.14020255 -0.20267992 0.066049516 -0.46370208 -0.027736707 0.1357426 -0.11936312
-0.24546172 -0.30972838 -0.29768196 -0.39531618 -0.1141538 0.30723464 -0.47997186 -0.066778794
-0.31626773 0.36606315 0.06767285 -0.054054618 -0.52127784 -0.014906195 -0.24055114 0.041576143
0.0049531218 -0.289274 -0.11332796 0.182378 -0.25923422 -0.5666365 -0.3112223 -0.011104415
-0.05751765 -0.14217947 0.023746554 0.22399104 -0.13947274 0.15654533 0.1355684 -0.18265384
-0.18756224 -0.22530685 0.010734364 0.0126244705 -0.21899787 -0.2791375 -0.06865026 -0.08621769
-0.12123081 0.19790487 -0.25070542 -0.082541525 -0.2968906 -0.38817054 -0.2867147 0.12124617
-0.0094529055 -0.27036205 -0.28603506 0.08668612 -0.40237117 -0.0062291943 -0.23620707 0.112212956
0.06296178 -0.116462864 -0.3537627 -0.030672349 -0.019088253 0.2385676 -0.13117674 -0.2534531
-0.4109158 -0.23685592 0.123087004 -0.09396458 0.028365377 -0.27778634 -0.08656854 -0.25728405
0.20887145 0.24084222 -0.050546978 -0.18534338 -0.48437858 -0.102538526 -0.06849635 0.20129114
-0.041111074 -0.24644893 0.21133566 -0.12134662 0.22844937 -0.06719796 -0.29557517 -0.026276909
-0.0140391905 0.016967066 -0.23697056 -0.36569518 0.19528571 0.045913123 0.07055083 0.014972016
0.20733131 -0.16345368 -0.25927198 0.2187634 -0.3891942 -0.1217172 -0.22476897 -0.5378151
-0.32630837 -0.21430475 -0.04698594 -0.09532568 0.2572236 -0.71931285 -0.25690562 -0.1688904
0.046221435 -0.33747944 -0.35448712 -0.33408552 -0.29573175 -0.16772133 -0.16827236 -0.41738912
-0.03544588 -0.20740525 0.20472814 -0.0043508387 -0.3188662 0.34495682 -0.191563 -0.027139042
0.028954867 0.1519685 -0.10909201 -0.113204196 -0.0781863 -0.038861673 0.01538564 -0.6200756
-0.0015332836 -0.11945772 -0.15393423 -0.19909734 -0.1808615 0.030364236 0.13637744 -0.143199
-0.26092392 0.1882145 -0.08681217 0.24251696 -0.19818206 -0.25747928 -0.21916237 -0.2768449
-0.2618675 -0.40576687 -0.09090903 -0.2519779 -0.28089136 -0.21768945 -0.11032412 0.056073997
-0.24686755 -0.2855049 -0.027618809 0.05691122 -0.0054070074 -0.011439397 0.16927348 -0.24341053
0.13919984 -0.18633632 0.027546132 -0.35057753 -0.3988837 -0.12580256 -0.21027337 -0.25834417
-0.14528993 0.18113078 0.2262709 -0.066461764 0.14066811 0.124380104 0.059416324 -0.13039598
0.22612524 0.26329884 -0.059376527 0.029615616 0.020167286 -0.25563812 0.17690653 -0.09868513
-0.28893873 -0.20213047 -0.06305541 -0.08864323 -0.18256496 -0.41464493 0.27535555 -0.1647329
0.14642133 -0.05237754 0.21118733 0.27169618 0.20924124 -0.074498236 -0.3452195 -0.1593482
0.051949915 -0.1644556 -0.039606657 -0.13613506 0.18016721 0.08961856 -0.118054114 -0.2937423
-0.36173755 -0.3230332 -0.16342902 -0.12814608 -0.22533154 0.117634155 0.48696026 -0.23965022
00000000: a558 d6be 3deb 2fbd c08b a3bc 6d3d 213e
00000010: 0bd0 6f3e e387 7abe f5f3 333d 61a1 35be
00000020: d2eb 663d f9a4 383e 0bea 04be 3b6d cbbe
00000030: 3b4a bebd 6a4b b73d 0509 fcbe 96de 9fbe
00000040: a358 eabe 7318 f2be dfc6 16be 63f8 173e
00000050: ed5a c9bd 09be f33b 1f28 abbe 3418 5dbe
00000060: eea2 cfbd 4291 0f3e 538b 4fbe f844 873d
00000070: 5c6a edbe 1738 e3bc 1c00 0b3e a774 f4bd
00000080: 515a 7bbe b894 9ebe c569 98be e266 cabe
00000090: 78c9 e9bd dc4d 9d3e dfbe f5be 52c3 88bd
000000a0: d8ed a1be a16c bb3e 1098 8a3d 6068 5dbd
000000b0: 7772 05bf 1d39 74bc 0a53 76be bf4b 2a3d
000000c0: cc4d a23b b91b 94be 7d18 e8bd 4cc1 3a3e
000000d0: 59ba 84be 170f 11bf 8858 9fbe 4bef 35bc
000000e0: a197 6bbd 7f97 11be 2288 c23c e85d 653e
000000f0: f1d1 0ebe 6b4d 203e 71d2 0a3e 9c09 3bbe
00000100: 5110 40be d7b6 66be 30df 2f3c ded6 4e3c
00000110: fa40 60be 1ceb 8ebe 8298 8cbd e692 b0bd
00000120: dc47 f8bd 93a7 4a3e 765c 80be 880b a9bd
00000130: 0b02 98be 4abe c6be 45cc 92be e94f f83d
00000140: 5ce0 1abc e56c 8abe 3073 92be 7e88 b13d
00000150: 9803 cebe 451e ccbb 44e0 71be e8cf e53d
00000160: 1bf2 803d 1584 eebd 6220 b5be 9444 fbbc
00000170: f85e 9cbc 114b 743e 3253 06be 9bc4 81be
00000180: 8e63 d2be 5c8a 72be 0a15 fc3d 8070 c0bd
00000190: 825e e83c 033a 8ebe d94a b1bd bcba 83be
000001a0: 66e2 553e 589f 763e 590a 4fbd a8ca 3dbe
000001b0: 7800 f8be b8ff d1bd d047 8cbd 441f 4e3e
000001c0: 1664 28bd 1c5d 7cbe 6068 583e 9484 f8bd
000001d0: a2ee 693e 169f 89bd a155 97be ac42 d7bc
000001e0: a204 66bc 84fe 8a3c 69a8 72be 663c bbbe
000001f0: faf8 473e 660f 3c3d f47c 903d 304d 753c
00000200: a94e 543e 6760 27be 4cbf 84be 8303 603e
00000210: 7644 c7be de46 f9bd d629 66be 40ae 09bf
00000220: e411 a7be b472 5bbe 5474 40bd 1c3a c3bd
00000230: d0b2 833e e324 38bf 2289 83be 9bf1 2cbe
00000240: b052 3d3d 1bca acbe 567f b5be 420d abbe
00000250: 276a 97be 24bf 2bbe 974f 2cbe 07b4 d5be
00000260: b32f 11bd 0b62 54be 41a4 513e 7b91 8ebb
00000270: 6e42 a3be 2e9e b03e 1729 44be b252 debc
00000280: c232 ed3c a19d 1b3e a26b dfbd 9ad7 e7bd
00000290: 2420 a0bd 6b2d 1fbd 0d14 7c3c 46bd 1ebf
000002a0: 76f8 c8ba 40a6 f4bd efa0 1dbe 2ce0 4bbe
000002b0: c233 39be 6bbe f83c 87a6 0b3e c2a2 12be
000002c0: d297 85be 4dbb 403e 94ca b1bd 5e56 783e
000002d0: 3df0 4abe 53d4 83be 1a6c 60be 9dbe 8dbe
000002e0: 7f13 86be adc0 cfbe 832e babd 3f03 81be
000002f0: fed0 8fbe fce9 5ebe 9df1 e1bd d9ad 653d
00000300: d9ca 7cbe b32d 92be d740 e2bc bd1b 693d
00000310: 442d b1bb 4f6c 3bbc 0756 2d3e 9c40 79be
00000320: 678a 0e3e f3ce 3ebe 6da8 e13c e67e b3be
00000330: 7c3a ccbe 63d2 00be e751 57be b045 84be
00000340: e2c6 14be 597a 393e 8fb3 673e 1b1d 88bd
00000350: 4d0b 103e ffba fe3d 885e 733d 8686 05be
00000360: 608d 673e 1bcf 863e cd34 73bd 739c f23c
00000370: dd35 a53c 00e3 82be fc26 353e 6e1b cabd
00000380: c7ef 93be 4afb 4ebe 3223 81bd 958a b5bd
00000390: 4ff2 3abe 574c d4be 67fb 8c3e beaf 28be
000003a0: 79ef 153e d589 56bd 7e41 583e c31b 8b3e
000003b0: 5643 563e 8892 98bd 9cc0 b0be 2d2c 23be
000003c0: 6fc9 543d 0c67 28be 973a 22bd fd66 0bbe
000003d0: c17d 383e f089 b73d 5bc6 f1bd 6465 96be
000003e0: aa35 b9be 9c64 a5be f059 27be ba38 03be
000003f0: 50bd 66be 2dea f03d db52 f93e de66 75be

fc4.bias f4 [100]
-0.4862636 -0.07424344 -0.44663402 -0.32197726 0.82749236 -0.4383302 -0.13589408 0.1094499
-0.41018254 -0.118605554 -0.8109624 0.43452793 -0.4745484 -0.4462376 -0.36586404 -0.4133814
-0.93106085 0.5549349 -0.346922 -0.20286523 -0.23340186 -0.37928167 -0.64206135 -0.32877183
-0.21266109 -0.18711221 -0.5438178 -0.20124838 -0.633538 -0.025215082 -0.2679082 -0.5703145
-0.40386763 -0.42037517 -0.3846533 -0.26025173 -0.41388163 -0.7811564 -0.5896448 -0.3231893
-0.47148487 -0.46329942 -0.31620103 -0.23292534 -0.4869349 -0.5457242 -0.12753183 0.33068877
-0.45937744 -0.20777017 -0.4074957 1.5700914 -0.6596337 -0.3669183 -0.38731083 -0.44054174
-0.43091923 -0.31526497 0.5936076 -0.30792537 -0.22827469 -0.33937293 -0.05688601 -0.2666903
-0.29483324 -0.02474812 -0.20429797 -0.6034304 -0.59673774 -0.4675528 -0.32606176 0.45413274
-0.6394397 -0.48974997 -0.47478077 -0.7014201 -0.58785456 -0.44616044 -0.26676485 -0.1928171
-0.32822916 -0.064706475 -1.2703063 -0.4262424 -0.49805933 -0.3796433 0.14828303 -0.3228293
-0.62336886 -0.3799196 -0.3748717 -0.25345948 -0.74223894 -0.82612133 -0.48185644 -0.25734964
1.3997558 -0.43882424 -0.023884231 -0.28979355
00000000: 8bf7 f8be f20c 98bd 37ad e4be 34da a4be
00000010: 8ad6 533f d16c e0be d127 0bbe 4527 e03d
00000020: 7203 d2be 78e7 f2bd 3b9b 4fbf 727a de3e
00000030: 02f8 f2be 4179 e4be 8852 bbbe baa6 d3be
00000040: 015a 6ebf 3710 0e3f c39f b1be e7bb 4fbe
00000050: e600 6fbe 3531 c2be 225e 24bf c854 a8be
00000060: d4c3 59be 589a 3fbe a537 0bbf 0e14 4ebe
00000070: 8c2f 22bf dc8f cebc 432b 89be 2200 12bf
00000080: bdc7 cebe 6a3b d7be 47f1 c4be b73f 85be
00000090: 4be8 d3be def9 47bf f6f2 16bf 1179 a5be
000000a0: 7766 f1be 9535 edbe 1ae5 a1be fb83 6ebe
000000b0: 884f f9be 95b4 0bbf b497 02be 0a50 a93e
000000c0: 8533 ebbe b4c1 54be 47a3 d0be c1f8 c83f
000000d0: c1dd 28bf b7dc bbbe 9b4d c6be b08e e1be
000000e0: 72a1 dcbe 696a a1be abf6 173f 65a8 9dbe
000000f0: d7c0 69be 4ac2 adbe 4e01 69bd a28b 88be
00000100: 62f4 96be 92bc cabc 7d33 51be 6a7a 1abf
00000110: cec3 18bf 1563 efbe 91f1 a6be 1684 e83e
00000120: 52b2 23bf 82c0 fabe 7716 f3be 4590 33bf
00000130: a37d 16bf 246f e4be 6795 88be d971 45be
00000140: a70d a8be d484 84bd 6699 a2bf 723c dabe
00000150: a201 ffbe 9b60 c2be 82d7 173e e249 a5be
00000160: 1a95 1fbf d284 c2be 2fef bfbe 71c5 81be
00000170: 5f03 3ebf b07c 53bf e3b5 f6be 55c3 83be
00000180: 332b b33f 92ad e0be dda8 c3bc d25f 94be
